src/robots/onnx/tita_policy.onnx (onnx, 906432 bytes, 33 tensors)

obs_normalizer._mean f4 [1, 33]
0	0x3b61c89d	0.003445185
1	0x3ac024c8	0.0014659399
2	0x3981082b	0.00024610883
3	0x3b9318b8	0.0044890307
4	0x3afa7377	0.0019107898
5	0xbf7d4704	-0.98936486
6	0x39eb3a0c	0.0004486594
7	0x00000000	0.0
8	0xb95472a6	-0.00020260605
9	0x3cc7d3e8	0.024393037
10	0x3dfe8307	0.12427335
11	0xbebed9a7	-0.3727543
12	0xb426891d	-1.5509836e-07
13	0xbcc5247e	-0.024065252
14	0x3e007673	0.12545185
15	0xbebd3b0e	-0.36959118
16	0x33c5b898	9.207105e-08
17	0xb8974b43	-7.21426e-05
18	0x3a5e0d87	0.00084706437
19	0xbafdadbb	-0.0019354144
20	0x3adc25d3	0.001679594
21	0xb9432cfb	-0.00018613406
22	0x3a783d1f	0.0009469557
23	0xbb05f1ca	-0.0020438307
24	0x3b040d3a	0.0020149485
25	0x3eb854f4	0.36002314
26	0x3f2ea236	0.68216264
27	0x3f8d991d	1.1062351
28	0x3c45c376	0.012070527
29	0xbeba37fd	-0.3637084
30	0x3f2f78f9	0.68543965
31	0x3f8fcd28	1.1234484
32	0x3c91cd1e	0.017798003

mlp_encoder.0.weight f4 [128, 165]
0	0x3c3aa53d	0.011391935
1	0xbc991cdf	-0.018690525
2	0xbb8b5908	-0.0042525567
3	0xbc6c9718	-0.01444032
4	0xba872164	-0.0010309634
5	0x3d985f34	0.074400336
6	0xbdc354d8	-0.09537667
7	0x3d37ccef	0.044873174
8	0xbddacd33	-0.1068367
9	0xbdf2ac35	-0.11849252
10	0xbdd1a707	-0.10236936
11	0x3c02de59	0.007987582
12	0xba0daf0c	-0.0005404807
13	0xbd32056f	-0.043462213
14	0xbc1bb504	-0.009503607
15	0x3d3fda99	0.04683933
16	0xba23c070	-0.0006246632
17	0x3b5b9801	0.003350735
18	0xbbfd6bb0	-0.0077337846
19	0xbca2449e	-0.01980811
20	0x3d81d656	0.063397095
21	0x3b5f2360	0.0034048185
22	0xbc190095	-0.009338518
23	0xbc593e42	-0.013259472
24	0xbcd86cb0	-0.026419014
25	0xbd06667d	-0.032812584
26	0x3c014614	0.007890243
27	0x3936daec	0.00017438427
28	0xbda5326e	-0.08066259
29	0x3bf3513a	0.0074254544
30	0xbb84d140	-0.004053265
31	0x3ce75c86	0.02824236
32	0xbc0e611a	-0.008690143
33	0x3ca022fa	0.019547928
34	0xbd09228f	-0.033480223
35	0x3ab719f8	0.0013969531
36	0xbd87b28c	-0.06625852
37	0xbc1d3e1c	-0.009597328
38	0x3dc54584	0.096324
39	0xbe352da6	-0.17693195
40	0xbd97b393	-0.07407298
41	0xbdc3d9c6	-0.09563021
42	0x3bce84ee	0.0063024675
43	0xbd7f3e4a	-0.062315263
44	0xbd6a8eb8	-0.057265013
45	0xb93b9cf5	-0.00017892181
46	0xbd6931ee	-0.056932382
47	0xbd8daaf9	-0.06917376
48	0x3c1819b2	0.00928347
49	0xba265cb7	-0.0006346213
50	0x3c029f78	0.007972591
51	0xbc8d8f0b	-0.017280122
52	0xbcbf651b	-0.02336364
53	0x3d017db7	0.03161403
54	0x3bd4431f	0.006477728
55	0xbc6663ef	-0.014061912
56	0xbc873f0c	-0.016509555
57	0xbd39f3a0	-0.045398355
58	0xbd1711a4	-0.036882058
59	0x3c1447d6	0.00905033
60	0x3b81c9a0	0.003960803
61	0xbd1c859a	-0.03821335
62	0x3bc582fb	0.006027577
63	0xbcad0cfb	-0.021124354
64	0x3d575c61	0.052578334
65	0x3c3c70f6	0.011501541
66	0x3cd79c7a	0.026319731
67	0xbd0509bf	-0.032479998
68	0x3b7de3e5	0.0038740572
69	0xbd61d7a4	-0.05513729
70	0xbcf1f474	-0.02953551
71	0x3dc475c5	0.09592775
72	0xbe0efece	-0.13964388
73	0xbd22e758	-0.039771408
74	0xbde2c3d7	-0.1107251
75	0xbca4cd4d	-0.020117426
76	0xbdca9c8b	-0.098931395
77	0xbcd3afc5	-0.02584065
78	0x39571fd3	0.00020515853
79	0xbd886d8a	-0.06661518
80	0x3dbbc435	0.09168283
81	0x3db1684b	0.086624704
82	0xba4b47a1	-0.0007754509
83	0x3c027ee6	0.007964825
84	0xbcd07695	-0.02544717
85	0xbcb0498f	-0.02151945
86	0x3d06828f	0.032839354
87	0x3c041076	0.008060565
88	0xbc5aac74	-0.01334678
89	0xbc1e3a95	-0.009657522
90	0xbcbea217	-0.02327065
91	0xbce47e7b	-0.027892342
92	0x3ca8314b	0.020531317
93	0xbc2aad70	-0.010417327
94	0xbd11ccf8	-0.035595864
95	0x3c05014a	0.008117983
96	0xbc7bfe72	-0.015380489
97	0x3d768a38	0.06019041
98	0xbaa41620	-0.0012518801
99	0x3cc2243d	0.02369892
100	0xbd099a21	-0.033594254
101	0x3c3fd892	0.011709349
102	0xbca03c72	-0.019560073
103	0xbcc9f402	-0.024652485
104	0x3db6ca82	0.08925344
105	0xbd98fe38	-0.074703634
106	0xbd9d6744	-0.07685712
107	0xbdb68097	-0.08911245
108	0xbd91ecce	-0.07125245
109	0xbd183145	-0.037156362
110	0xbdafda95	-0.08586613
111	0x3a025a2b	0.00049725425
112	0xbcc9ee2d	-0.024649704
113	0x3aa07cdc	0.0012244242
114	0x3c3d48b7	0.011552981
115	0x39e14602	0.00042967504
116	0x3b2dfb32	0.002654743
117	0xbcd339c8	-0.025784388
118	0xbc2d59d0	-0.010580495
119	0x3c73504b	0.014850686
120	0x3c05afab	0.008159558
121	0x3aa75325	0.0012765868
122	0x3c83aab6	0.016072612
123	0x3b784844	0.003788487
124	0xbc9add32	-0.018904302
125	0xb762932c	-1.3504916e-05
126	0xbca78f3f	-0.020454047
127	0xbca61cf5	-0.02027748
128	0xbb8fe30a	-0.004391079
129	0xbcb2ea99	-0.02184038
130	0x3cf6725b	0.030083826
131	0xbc83f3b9	-0.016107427
132	0x3c65b685	0.014020567
133	0xbcdff682	-0.027339224
134	0x3c0633f3	0.008191097
135	0xbcc9e3c2	-0.024644736
136	0xbc603741	-0.013685049
137	0x3d234482	0.039860256
138	0xbdee018a	-0.11621387
139	0xbab47a5b	-0.0013769375
140	0xbd9ad053	-0.07559266
141	0x3cdf3cb9	0.027250635
142	0xbc08750e	-0.008328689
143	0x3ceeacc3	0.029135114
144	0x39daac24	0.00041708455
145	0xbc5fb045	-0.013652866
146	0x3bcad8ee	0.006190411
147	0xbcc31edf	-0.023818431
148	0xb8589c6b	-5.164409e-05
149	0xbb8a47c7	-0.0042199823
150	0xbc850c64	-0.01624126
151	0x3c05c712	0.008165138
152	0xbab7de5c	-0.001402806
153	0x3686524f	4.003093e-06
154	0x3ba67844	0.0050802547
155	0x3d4b031e	0.04956352
156	0x3d2e6c76	0.042583905
157	0xbc6eb12b	-0.014568607
158	0xbcc60a20	-0.02417475
159	0xbca4d39a	-0.02012043
160	0x3b5a7bc3	0.0033337928
161	0x3bcc03a3	0.0062260195
162	0xbc81fd0a	-0.015867729
163	0x3c12fcd6	0.008971414
164	0x3c22e993	0.009943384
165	0xbc90ef05	-0.017692098
166	0x3ce6d3bc	0.028177135
167	0x3ca6cb68	0.020360664
168	0xbcf86baa	-0.030324776
169	0xbd1f398e	-0.038873248
170	0x3d16d711	0.036826197
171	0xba10f13d	-0.00055291114
172	0xbcd4aa4d	-0.025960112
173	0x3d6d06c1	0.05786777
174	0xba2ba628	-0.00065478915
175	0x3b985410	0.004648693
176	0x3ce605ca	0.028078932
177	0xba8f20ce	-0.0010919811
178	0xbd50b873	-0.050957154
179	0xbdc197a8	-0.09452754
180	0x3d8d60ac	0.06903204
181	0x3b592692	0.0033134562
182	0x3c0f4429	0.008744278
183	0x3c46c3ab	0.012131612
184	0x3d1665e0	0.03671825
185	0xbd43b629	-0.047781143
186	0xbb8e468f	-0.0043419073
187	0xbaa2376d	-0.0012376137
188	0xbc95918e	-0.018257882
189	0x3d23ae37	0.039961066
190	0x3b435f44	0.0029811421
191	0xbac24ad4	-0.0014823326
192	0xbcdba932	-0.026814077
193	0x3d26f539	0.040761206
194	0x3cbf41ff	0.0233469
195	0xbc1675e8	-0.0091833845
196	0xbd25ee1f	-0.040510293
197	0xbc007d3a	-0.007842356
198	0xbcd6f55d	-0.026240045
199	0x3c6c9f38	0.014442258
200	0x3ce75d4d	0.028242731
201	0xbdb99334	-0.0906128
202	0xbd6e53e5	-0.058185477
203	0x3d8ab0ce	0.06772004
204	0xbd83e13c	-0.064394444
205	0xbceede10	-0.029158622
206	0x3d186838	0.037208766
207	0x3d1ae2fa	0.037814118
208	0x3cc35206	0.023842823
209	0xbd1a5693	-0.03768022
210	0xbaf4df41	-0.0018682258
211	0xbd9eed57	-0.07760113
212	0x3d3facab	0.04679553
213	0x3d90bb61	0.0706699
214	0x3b4bc4a3	0.0031092546
215	0x3bf27be9	0.007400025
216	0x3cd7ce34	0.026343442
217	0x3d2cd6ac	0.042196915
218	0xbe0513ae	-0.12995788
219	0xbacae975	-0.0015480953
220	0x3b963143	0.004583509
221	0xbc248f07	-0.010043866
222	0x3c6ec664	0.014573667
223	0x3bcdee30	0.0062844977
224	0xbd1e2143	-0.03860594
225	0xbd30bda7	-0.043149617
226	0x3d6a1f20	0.05715859
227	0x3d1a8fb4	0.037734702
228	0xbcfceaf9	-0.030873762
229	0xbd8a5cc2	-0.067559734
230	0x39bc75dd	0.0003594597
231	0xbcf67ba7	-0.030088259
232	0xbcc0e95c	-0.023548774
233	0x3d014697	0.03156146
234	0xbdc60bc3	-0.09670212
235	0xbd842f18	-0.06454295
236	0x3d94ab70	0.072592616
237	0xbde621c0	-0.11236906
238	0x3d00d1e8	0.031450182
239	0x3d1e803b	0.03869651
240	0x3c06da05	0.008230691
241	0xbdb13d80	-0.08654308
242	0xbdaec61c	-0.0853388
243	0xbafd8714	-0.0019342625
244	0xbd7a4c5f	-0.06110799
245	0x3d8f32bc	0.06992099
246	0x3e136929	0.14395584
247	0x3b2d4835	0.0026440744
248	0x3bbe62f8	0.005810138
249	0x3b855c8a	0.0040698694
250	0x3d123638	0.03569624
251	0xbdd86614	-0.10566345
252	0xb83768fe	-4.372838e-05
253	0xbbcf1c07	-0.00632048
254	0x3bcbf475	0.00622421
255	0x3cecb802	0.028896336

mlp_encoder.0.bias f4 [128]
0	0xbd64613d	-0.055756796
1	0x3c007551	0.00784047
2	0x3d51d455	0.051227886
3	0x3d862113	0.06549277
4	0x3d6f6793	0.058448385
5	0xbca73fad	-0.020416105
6	0xbd0c2502	-0.03421498
7	0xbcefc92f	-0.029270737
8	0x3cbbd8ca	0.022930522
9	0x3d9ac2f9	0.07556719
10	0x3cbcfedc	0.023070745
11	0x3d848e7a	0.06472488
12	0xbb738c60	-0.0037162527
13	0x39ae13bc	0.0003320257
14	0xbd9d82f5	-0.07690994
15	0x3cf24421	0.029573502
16	0xbd006695	-0.03134783
17	0x3d27b652	0.04094536
18	0xbd9a8dff	-0.07546615
19	0x3ba29c28	0.004962463
20	0xbd4afdca	-0.04955844
21	0xbd851e34	-0.064999014
22	0x3c8f010e	0.017456558
23	0x3d504e42	0.050855882
24	0x3c164195	0.009170909
25	0x3d9d011f	0.076662295
26	0x3cc0f4b2	0.02355418
27	0xbd756238	-0.05990812
28	0x3cbf7b54	0.023374237
29	0xbd0c1c36	-0.03420659
30	0xbd937b36	-0.07201235
31	0xbd9719ff	-0.07378005
32	0x3d64749c	0.05577527
33	0xbb8606ed	-0.004090181
34	0x3d164863	0.036690127
35	0xbd562dc7	-0.05228975
36	0x3d62bf15	0.05535801
37	0x3d170092	0.03686578
38	0x3d2b9236	0.041887484
39	0xbc499e6c	-0.012305837
40	0x3d907e05	0.07055286
41	0x3cecfaeb	0.02892824
42	0x3d9b0931	0.075701125
43	0x3d1d0c61	0.038341884
44	0x3bd5ef4c	0.0065287706
45	0x3cbd99f8	0.023144707
46	0xbd0adddb	-0.033902984
47	0x3d035e4c	0.03207235
48	0xbd480a8e	-0.04883819
49	0x3b6c4a2b	0.003605495
50	0x3d187bdb	0.037227493
51	0xbd942d26	-0.07235174
52	0x3d9df77e	0.07713221
53	0x3ca2b7b1	0.019862982
54	0xbc6f62d3	-0.014610964
55	0x3d763f89	0.060119186
56	0x3d481acd	0.048853684
57	0xbcfc712e	-0.030815687
58	0x3b4ab7cd	0.0030932308
59	0xbcaa507d	-0.020790333
60	0xbd912f87	-0.07089143
61	0x3b3d0bb9	0.0028846099
62	0x3cc2b62f	0.023768513
63	0xbd8d33c7	-0.06894641
64	0x3a80e790	0.0009834636
65	0xbd73e87e	-0.059547894
66	0xbc86c49b	-0.01645117
67	0xbd2c30ed	-0.042038847
68	0xbb3ae4cb	-0.002851772
69	0xbd71b279	-0.059008095
70	0x3c8d524a	0.017251153
71	0x3d67fb08	0.056635886
72	0xbcc91285	-0.024544964
73	0x3cad9af8	0.021192059
74	0xbd9c0d13	-0.07619681
75	0xbd8d5839	-0.06901593
76	0x3d899a40	0.06718874
77	0xbd8c308d	-0.06845198
78	0x3d265f58	0.04061827
79	0xbb9c9167	-0.0047780755
80	0xbd96ea20	-0.073688745
81	0xbc938a05	-0.018010149
82	0x3bfa105a	0.007631344
83	0x3d1ea86f	0.03873485
84	0xbd438d2d	-0.047742058
85	0x3d08bfab	0.033385914
86	0x3d68edc7	0.056867387
87	0xbd90aea1	-0.07064558
88	0x3d60b13c	0.054856524
89	0x3cb907ee	0.022586789
90	0x3d8e3366	0.06943397
91	0xbbf23373	-0.007391387
92	0xbd852edb	-0.065030776
93	0xbd7740e0	-0.060364604
94	0x3c200518	0.009766839
95	0x3d92daa6	0.0717061
96	0x3d52301e	0.05131542
97	0xbd891e27	-0.06695204
98	0xbd1dd80a	-0.03853611
99	0x3d95a466	0.07306747
100	0xbd1829a6	-0.037149094
101	0x3d99e2b3	0.075139426
102	0xbc82e707	-0.015979303
103	0xbd964ff5	-0.07339469
104	0xbabf9804	-0.0014617448
105	0xbd96877a	-0.07350059
106	0x3d2ce8ac	0.04221408
107	0xbd917226	-0.0710185
108	0x3d2a3fa3	0.041564595
109	0xbd88ac0c	-0.0667344
110	0xbd3677ff	-0.04454803
111	0x3d8eb808	0.06968695
112	0x3c87595b	0.0165221
113	0xbb98a3ea	-0.004658212
114	0x3b88de31	0.004176878
115	0xbd6f1879	-0.05837295
116	0x3c4950ad	0.012287301
117	0xbc2ce164	-0.010551784
118	0xbcfedb5b	-0.031110456
119	0xbd07034c	-0.03296213
120	0xbc9dd208	-0.01926519
121	0xbc999759	-0.018748926
122	0xbd7055ff	-0.058675762
123	0xbcdd6fac	-0.027030788
124	0xbd51b642	-0.051199205
125	0xbd8e4682	-0.06947042
126	0xbd8f5c2b	-0.070000015
127	0xbd4870a9	-0.048935566

mlp_encoder.1.weight f4 [128]
0	0x3f5bf324	0.8591788
1	0x3f3f7be2	0.74798405
2	0x3f824063	1.0175899
3	0x3f544b94	0.82927823
4	0x3f435782	0.763054
5	0x3f60e47f	0.8784866
6	0x3f5999a1	0.85000044
7	0x3f5d1ed1	0.8637515
8	0x3f5c34ab	0.86017865
9	0x3f3df458	0.74200964
10	0x3f3e2f58	0.7429099
11	0x3f2f4516	0.6846479
12	0x3f63c33e	0.8896979
13	0x3f51e67f	0.81992334
14	0x3f544160	0.82912254
15	0x3f6afa92	0.9178859
16	0x3f595f09	0.8491064
17	0x3f42f33d	0.761524
18	0x3f6a747b	0.91583985
19	0x3f6aebe4	0.9176619
20	0x3f3d03c6	0.7383388
21	0x3f7457ba	0.9544636
22	0x3f667c05	0.9003299
23	0x3f52904e	0.8225144
24	0x3f67750e	0.90412986
25	0x3f62a6bb	0.8853566
26	0x3f31cb4a	0.6945082
27	0x3f5f0d3d	0.87129575
28	0x3f7c8592	0.9864131
29	0x3f48d3a2	0.78447926
30	0x3f293a46	0.66104543
31	0x3f3c4dea	0.7355639
32	0x3f49df2f	0.78856176
33	0x3f706519	0.9390426
34	0x3f543ef3	0.8290855
35	0x3f5785d1	0.8418856
36	0x3f35c55e	0.71004283
37	0x3f5e774e	0.86900795
38	0x3f5f5e0d	0.87252885
39	0x3f34b305	0.7058566
40	0x3f6ee16a	0.93312705
41	0x3f59a931	0.8502379
42	0x3f6f05e6	0.93368375
43	0x3f559c4e	0.8344163
44	0x3f512aa7	0.8170571
45	0x3f51bc04	0.81927514
46	0x3f505131	0.8137389
47	0x3f6d2313	0.92631644
48	0x3f702628	0.9380822
49	0x3f462443	0.7739908
50	0x3f3c1608	0.73471117
51	0x3f431c7d	0.76215345
52	0x3f53a155	0.8266805
53	0x3f6c4172	0.9228736
54	0x3f6f8372	0.93559945
55	0x3f3a97cc	0.72887874
56	0x3f1f0549	0.6211744
57	0x3f571c56	0.8402761
58	0x3f517a66	0.8182739
59	0x3f609911	0.8773356
60	0x3f4cf803	0.80065936
61	0x3f70b78f	0.9403009
62	0x3f61fd84	0.8827746
63	0x3f4e0943	0.8048288
64	0x3f68138f	0.90654844
65	0x3f5779e3	0.8417036
66	0x3f57a22f	0.8423185
67	0x3f74be0a	0.95602477
68	0x3f5edf72	0.870597
69	0x3f48fdce	0.78512275
70	0x3f5c325c	0.8601434
71	0x3f57fa89	0.8436666
72	0x3f401cf2	0.7504417
73	0x3f5763c3	0.841366
74	0x3f4e55d4	0.80599713
75	0x3f52ef32	0.82396233
76	0x3f8daae1	1.1067773
77	0x3f676d5d	0.9040125
78	0x3f6aec01	0.91766363
79	0x3f4f6f9e	0.8102969
80	0x3f670fb4	0.90258336
81	0x3f42d83f	0.76111215
82	0x3f49dc88	0.7885213
83	0x3f4f1706	0.80894506
84	0x3f743380	0.9539108
85	0x3f403360	0.7507839
86	0x3f6e427d	0.93070203
87	0x3f51381d	0.8172625
88	0x3f79a5ca	0.975186
89	0x3f3ddd75	0.7416604
90	0x3f66a59d	0.90096456
91	0x3f4f2b30	0.80925274
92	0x3f6a7ab3	0.91593474
93	0x3f6c0911	0.92201334
94	0x3f4d440d	0.8018196
95	0x3f50cbbb	0.8156087
96	0x3f2a6021	0.6655293
97	0x3f717ee0	0.9433422
98	0x3f40a89b	0.7525727
99	0x3f6a3a6b	0.9149539
100	0x3f461032	0.7736846
101	0x3f5febcb	0.87469167
102	0x3f55dfed	0.8354481
103	0x3f55ac13	0.8346569
104	0x3f3b1ca9	0.73090607
105	0x3f3e6ffd	0.7438963
106	0x3f61ccee	0.8820332
107	0x3f71d9a5	0.94472724
108	0x3f79466d	0.97373086
109	0x3f7eda6c	0.99552035
110	0x3f61cb3f	0.88200754
111	0x3f552747	0.8326306
112	0x3f446ed8	0.76731634
113	0x3f5299f7	0.8226618
114	0x3f6170ed	0.88062936
115	0x3f361fc6	0.7114223
116	0x3f3537b7	0.7078814
117	0x3f5640f5	0.83692867
118	0x3f2ae80a	0.66760314
119	0x3f4f00bb	0.8086049
120	0x3f5ecea4	0.8703406
121	0x3f682f9f	0.90697664
122	0x3f5a4d3f	0.8527412
123	0x3f5bb3c0	0.8582115
124	0x3f66d6fa	0.9017178
125	0x3f521d7e	0.8207625
126	0x3f814a3c	1.010078
127	0x3f5442d7	0.8291449

mlp_encoder.1.bias f4 [128]
0	0x3d50b9e3	0.050958525
1	0xbb4b8665	-0.0031055447
2	0x3f506e5f	0.8141841
3	0x3f0ce98f	0.5504388
4	0x3ed0ff94	0.4081999
5	0x3df72815	0.12068192
6	0x3e3766c2	0.17910293
7	0xbe8e45c6	-0.27787608
8	0x3cd478f1	0.025936576
9	0x3fdef199	1.741748
10	0x3e4a6699	0.197657
11	0x3fe1fc6c	1.7655158
12	0x3d562e8f	0.052290495
13	0x3f28fee1	0.66013914
14	0x3e1d8cb9	0.15385713
15	0x3e822ff4	0.2542721
16	0x3da329a6	0.07966928
17	0x3e7efb46	0.2490054
18	0x3e8880df	0.2666082
19	0x3e2bed74	0.167898
20	0x3fc7158c	1.555345
21	0xbdf6f403	-0.1205826
22	0x3ea0fe22	0.31443888
23	0x3ea78dfc	0.32725513
24	0x3eaabd73	0.33347663
25	0x3e600cac	0.21879834
26	0x3fc57f73	1.542952
27	0x3eabcdd7	0.3355548
28	0xbce46de2	-0.027884427
29	0x3daf2cd3	0.085534714
30	0x3fbd10ce	1.4770753
31	0x3fc9f696	1.5778377
32	0xbc0acf2b	-0.008472244
33	0x3f8b71fa	1.0894158
34	0x3df374ec	0.118875355
35	0x3eae397e	0.34028238
36	0x3e7e47b0	0.24832034
37	0x3c86042a	0.016359407
38	0x3df9d7fb	0.12199398
39	0x3e3bd9db	0.18344824
40	0x3f16b880	0.58875275
41	0xbe92115b	-0.28528866
42	0x3e3fd83f	0.18734835
43	0x3e65b513	0.22432356
44	0xbd436ff7	-0.0477142
45	0x3e350231	0.17676617
46	0x3dc23e18	0.094845
47	0x3e1701d0	0.14746785
48	0xbb24c6e8	-0.0025142971
49	0x3e52c67a	0.20583525
50	0x3fc40e6f	1.5316905
51	0x3e0e7c64	0.13914639
52	0x3dffe6e2	0.12495209
53	0x3e4a0d9b	0.19731753
54	0xbc867bbe	-0.016416427
55	0x3ecb0208	0.39649987
56	0x3fad3601	1.3532106
57	0x3db6ea22	0.08931376
58	0x3e2f6de1	0.17131759
59	0x3dab1a95	0.083546795
60	0xbcc8dc51	-0.024519118
61	0xbebd2ab9	-0.36946657
62	0xbeca3dec	-0.39500368
63	0xbf0c4b92	-0.5480281
64	0x3dc3494d	0.095354654
65	0xbdee74f6	-0.11643402
66	0x3e21034e	0.15723917
67	0xbe78a2f8	-0.24280918
68	0xbf0e09e4	-0.5548384
69	0x3f2ba6a4	0.6705115
70	0xbe60caac	-0.21952313
71	0x3d56ae8e	0.052412562
72	0xbd04ccd0	-0.032421887
73	0xbd1d90f1	-0.038468305
74	0xbdae51a9	-0.08511669
75	0x3ede2024	0.43383896
76	0xbf0baecc	-0.54563594
77	0x3fc7448d	1.5567795
78	0x3e26dabb	0.16294377
79	0xbe860b8a	-0.2618068
80	0xbbb84e66	-0.00562458
81	0x3ef9c654	0.48784125
82	0x3f13d851	0.5775195
83	0xbca92fcf	-0.02065268
84	0x3e3c7ef1	0.184078
85	0x3f1adafc	0.60490394
86	0xbe40ea36	-0.18839344
87	0x3e0d3986	0.13791475
88	0xbe56fc28	-0.20994627
89	0x3fcbe83d	1.5930248
90	0x3d033664	0.032034293
91	0x3e62663e	0.22109315
92	0xbd0febe1	-0.03513706
93	0xbde890a3	-0.11355712
94	0x3dc329bb	0.09529444
95	0x3e113917	0.14181934
96	0xbf001a21	-0.5003987
97	0xbeee22a1	-0.46510795
98	0x3ed2fa33	0.41206512
99	0x3e9023dd	0.28152362
100	0x3ea8321e	0.32850736
101	0x3e18f8ae	0.14938614
102	0x3f733d07	0.95014995
103	0x3ec6bfe7	0.38818285
104	0x3eb1ba5d	0.34712496
105	0x3c9151ac	0.01773914
106	0xbe7a357d	-0.24434467
107	0x3dd4379a	0.10362168
108	0xbd5f11a9	-0.0544602
109	0x3d71e05e	0.059051864
110	0x3e44359b	0.19161074
111	0x3e4d1f82	0.2003155
112	0x3fce8181	1.6133271
113	0x3e8ff7a3	0.2811862
114	0x3d5ec123	0.05438341
115	0x3fd3e1eb	1.655332
116	0xbcb422df	-0.021989284
117	0xbd9634fc	-0.07334325
118	0x3f94aff9	1.1616203
119	0x3e31882e	0.17337105
120	0x3c707b65	0.014677857
121	0x3e6fee5c	0.2343077
122	0x3e26b4b2	0.16279867
123	0xbf08b2a4	-0.53397584
124	0xbc8340ae	-0.016022053
125	0x3f019ed5	0.50632983
126	0xbf02f830	-0.51159954
127	0x3e3de308	0.18543637

mlp_encoder.1.running_mean f4 [128]
0	0xbe1f2bf8	-0.15544116
1	0x3daece78	0.085354745
2	0x3e7f18a5	0.24911745
3	0x3dcc0721	0.09962297
4	0xbcce98cb	-0.025219342
5	0xbe7cf91b	-0.24704401
6	0x3e4a8dd2	0.19780663
7	0xbd833fbd	-0.064086415
8	0x3eb4cb9e	0.35311598
9	0x3d2bc62f	0.04193705
10	0x3cb646e6	0.022250604
11	0x3bc50af9	0.006013271
12	0x3e25cfd5	0.16192563
13	0x3e3ea292	0.18616703
14	0x3dad4c4b	0.08461817
15	0x3de659ba	0.11247583
16	0xbdb66cf7	-0.08907502
17	0xbd9267a0	-0.07148671
18	0x3ea22881	0.31671527
19	0xbe9b07e4	-0.30279458
20	0x3d917bbf	0.07103681
21	0xbd4fa2dd	-0.050692428
22	0x3ea15596	0.3151061
23	0x3dc3ab41	0.095541485
24	0x3db6ab7b	0.08919426
25	0x3e7f9fac	0.24963254
26	0x3e18e873	0.14932422
27	0x3cb762bb	0.022385946
28	0x3df89977	0.12138646
29	0x3d59d61e	0.053182714
30	0xbc87be2b	-0.016570171
31	0xbcd044b8	-0.025423393
32	0x3c243051	0.010021285
33	0xbd4b0138	-0.04956171
34	0x3e4a9191	0.19782092
35	0xbcfd7369	-0.03093882
36	0xbcb4027e	-0.021973845
37	0xbe192f63	-0.14959483
38	0xbe6d5403	-0.23176579
39	0x3bd26dba	0.006421772
40	0x3e13eaa5	0.14444979
41	0x3e3cd1a6	0.1843935
42	0xbeaa819d	-0.33302012
43	0x3d1f1e58	0.038847297
44	0x3c87e787	0.016589893
45	0x3ea7fcb3	0.32809982
46	0x3c6c0435	0.0144053
47	0xbdb1a696	-0.08674352
48	0xbe373a82	-0.17893413
49	0x3e815c70	0.25265837
50	0x3e3a3458	0.1818403
51	0xbcc596b9	-0.024119722
52	0x3d9a08c6	0.07521205
53	0x3e5c86df	0.21535824
54	0x3ea88cc7	0.32919905
55	0x3d828d3e	0.06374596
56	0x3decb7fc	0.1155853
57	0xbe03b9e5	-0.12863882
58	0xbd00cb65	-0.031443972
59	0x3e21ad5e	0.1578879
60	0x3dbb994a	0.09160097
61	0xbc5016b6	-0.012700727
62	0xbda4f338	-0.08054203
63	0xbe9f2457	-0.31082413
64	0xbeaf5650	-0.3424554
65	0xbb038ec4	-0.0020074109
66	0xbe0eabf5	-0.13932784
67	0xbe67b690	-0.22628236
68	0xbde8a44c	-0.11359462
69	0xbdc2ceb4	-0.09512082
70	0xbe9a85fc	-0.30180347
71	0xbde50092	-0.111817494
72	0x3de6d39e	0.112708315
73	0x3cd19132	0.02558193
74	0xbe037813	-0.12838773
75	0x3e84f4ac	0.2596792
76	0x3e22fb5d	0.159162
77	0xbe20a770	-0.15688872
78	0xbdd5a25e	-0.1043136
79	0x3ad40b87	0.0016177752
80	0x3ed85db7	0.42259
81	0xbe16bb60	-0.14719915
82	0xbd4b9654	-0.04970391
83	0x3ec50386	0.3847925
84	0x3e0cda7a	0.13755217
85	0x3a6a1dce	0.0008930833
86	0xbed81ce9	-0.42209557
87	0x3c4128ec	0.011789542
88	0xbe65c1fc	-0.2243728
89	0x3e4a21e3	0.1973949
90	0xbdc0b21f	-0.09408974
91	0xbe01998f	-0.12656234
92	0xbead88d2	-0.33893448
93	0x3e2718df	0.16318081
94	0xbe71029e	-0.23536155
95	0x3dca1a08	0.09868246
96	0x3df33b46	0.1187654
97	0xbe5a1cdd	-0.21300073
98	0xbd5348f1	-0.051583234
99	0xbe2aaa10	-0.16666436
100	0xbd4a3338	-0.049365252
101	0xbd5f21a0	-0.054475427
102	0xbdc8a5b0	-0.097972274
103	0x3d7f1946	0.062279962
104	0xbe3a3300	-0.18183517
105	0xbe1ae81b	-0.15127604
106	0x3d6c650d	0.057713557
107	0xbdd7fbf1	-0.10546101
108	0xbf033d11	-0.51265055
109	0x3e3a718b	0.18207376
110	0x3e7b8a87	0.24564563
111	0x3ea1dd98	0.31614375
112	0xbd7b0f3b	-0.06129382
113	0xbe846218	-0.2585609
114	0xbdb419ff	-0.08794021
115	0x3c2f8604	0.010713104
116	0xbdab2407	-0.08356481
117	0x3d72919c	0.059220895
118	0x3d224f53	0.03962643
119	0xbc31ef49	-0.010860273
120	0xbd4ebfc0	-0.050475836
121	0x3eadccb9	0.33945253
122	0xbeaa963a	-0.3331774
123	0xbd981378	-0.07425588
124	0xbe220f0b	-0.15826051
125	0x3dbdd2fa	0.09268756
126	0x3e7e5085	0.24835403
127	0xbde55326	-0.111975

mlp_encoder.1.running_var f4 [128]
0	0x3f7c2628	0.9849572
1	0x3f1cc14b	0.6123244
2	0x3f4dfb95	0.8046201
3	0x3f12dfdb	0.57372826
4	0x3f0511ae	0.519801
5	0x3f3c0aef	0.73454183
6	0x3f880c31	1.062872
7	0x3f250e0e	0.6447457
8	0x3fa56bc7	1.2923516
9	0x3e6278fb	0.22116463
10	0x3ec0e61c	0.3767556
11	0x3e8435de	0.25822347
12	0x3f4f3751	0.8094378
13	0x3f38279d	0.71935445
14	0x3f289f38	0.6586795
15	0x3fb06834	1.37818
16	0x3f1a1cec	0.6020038
17	0x3ea46b2a	0.3211301
18	0x3fbcc5a8	1.474782
19	0x3fa94e22	1.3226969
20	0x3f0230fa	0.5085598
21	0x3ee17116	0.4403159
22	0x3f456e19	0.7712112
23	0x3f82c47a	1.021621
24	0x3f0a5e67	0.54050297
25	0x3f943f9c	1.1581912
26	0x3e9a5818	0.30145335
27	0x3fa08f2c	1.2543693
28	0x3f4eec06	0.80828893
29	0x3ea87a59	0.32905844
30	0x3e956767	0.29180452
31	0x3e6bcef0	0.23028159
32	0x3f212cf5	0.62959224
33	0x3eb4bd6c	0.35300767
34	0x3fcc396c	1.5955024
35	0x3f5a867d	0.8536146
36	0x3e915284	0.28383267
37	0x3f713006	0.942139
38	0x3f6396a7	0.8890175
39	0x3ec80b85	0.3907129
40	0x3e0814a3	0.13289122
41	0x3f863620	1.0485268
42	0x3f6480f4	0.89259267
43	0x3e0521c4	0.13001162
44	0x3efa5149	0.4889014
45	0x3f15b43c	0.5847814
46	0x3ef84fce	0.48498386
47	0x3f4b398d	0.7938469
48	0x3f14bc82	0.5810014
49	0x3f49fa87	0.788979
50	0x3ee2d35c	0.4430188
51	0x3f35a044	0.7094767
52	0x3faac7db	1.3342241
53	0x3f9003b2	1.1251128
54	0x3f32a68a	0.6978537
55	0x3f43a9d5	0.7643102
56	0x3e956735	0.29180303
57	0x3f1e5d97	0.61861557
58	0x3e923507	0.28556082
59	0x3f2e46a6	0.6807655
60	0x3f1e037e	0.6172408
61	0x3f2b7d9c	0.6698854
62	0x3ee6b17e	0.4505729
63	0x3f2572b9	0.6462818
64	0x3f24e450	0.6441088
65	0x3f56d249	0.8391462
66	0x3f8b70b9	1.0893775
67	0x3f8d4ade	1.1038473
68	0x3f2f2b0a	0.6842505
69	0x3e5af8b4	0.21383935
70	0x3eed42f3	0.4634014
71	0x3ef16eba	0.4715479
72	0x3f3f9fa5	0.74852973
73	0x3f265f67	0.6498932
74	0x3eb08744	0.344782
75	0x40043bee	2.0661578
76	0x3f4f139f	0.80889314
77	0x3e9eacad	0.30991116
78	0x3f85277c	1.0402675
79	0x3eb7b08a	0.35876876
80	0x3f6d49d5	0.92690784
81	0x3ea0c9a7	0.3140385
82	0x3e4599ca	0.19296947
83	0x3f3d3a3d	0.7391699
84	0x3f07475d	0.52843267
85	0x3f1acdc1	0.60470206
86	0x3f810bbe	1.0081708
87	0x3ee81869	0.45331123
88	0x3f72f640	0.94907
89	0x3ee49cb2	0.446508
90	0x3ea2c93a	0.3179415
91	0x3f04b307	0.51835674
92	0x3f17d111	0.59303385
93	0x3fea1604	1.8287969
94	0x3f4212c2	0.7580987
95	0x3e9061d2	0.2819963
96	0x3ebfca51	0.37459043
97	0x3f2a8807	0.6661381
98	0x3e4627e0	0.19351149
99	0x3f0da7e1	0.5533429
100	0x3e09ac06	0.13444528
101	0x3fc785b3	1.5587677
102	0x3e89584a	0.26825172
103	0x3f9ae50f	1.2101153
104	0x3f5efd5a	0.87105334
105	0x3f0af1e4	0.54275346
106	0x3e062a19	0.13101996
107	0x3e31025b	0.17286055
108	0x3ff414a7	1.9068803
109	0x3fc18cce	1.5121095
110	0x3fe6d03f	1.8032302
111	0x3f577d90	0.8417597
112	0x3e77ab94	0.24186546
113	0x3f5ef1a2	0.8708745
114	0x3f4ff54a	0.81233656
115	0x3ebdf9f0	0.3710475
116	0x3e3e6ffc	0.18597406
117	0x3f101f33	0.56297606
118	0x3ed2b7e8	0.41155934
119	0x3eeed5e3	0.46647558
120	0x3f83ca51	1.0296117
121	0x3fb22e36	1.3920352
122	0x3f08c0cc	0.53419185
123	0x3ea3a70f	0.31963393
124	0x3f641faf	0.89110845
125	0x3ea77e7d	0.3271369
126	0x3f29f23b	0.6638524
127	0x3f531bce	0.824643

mlp_encoder.3.weight f4 [64, 128]
0	0xbd13deb3	-0.036101054
1	0xbddd6552	-0.10810341
2	0xbcee55f7	-0.029093726
3	0x3cf37983	0.029721027
4	0x3d86ff99	0.0659172
5	0x3db0172b	0.08598169
6	0x3cb18b03	0.021672731
7	0x3ceb0226	0.028687548
8	0x3d102ada	0.035197116
9	0x3d3932b9	0.04521439
10	0xbcdfba0a	-0.02731039
11	0x3d736b35	0.059428412
12	0x3ce0cbaa	0.027440865
13	0x3d73adc8	0.059491903
14	0x3da968f6	0.08271973
15	0xbc37217c	-0.011177417
16	0x3e3e7dc2	0.1860266
17	0xbd7fd2c3	-0.062456857
18	0x3c8f6641	0.017504813
19	0xbcd5a7cb	-0.026080986
20	0x3db89a1f	0.09013771
21	0x3da9c728	0.08289939
22	0x3d89489b	0.067033015
23	0x3d145f7e	0.03622388
24	0x3dcb66e7	0.099317364
25	0x3d3c8b0f	0.046031054
26	0xbd65cd5e	-0.056104057
27	0x3bc401f8	0.00598168
28	0xbbac4518	-0.00525726
29	0xbc40bd57	-0.011763892
30	0xbd1f8fb7	-0.038955417
31	0x3e069862	0.13144067
32	0x3c51a5a7	0.012795842
33	0x3da41bd8	0.08013123
34	0xbb09e301	-0.0021039846
35	0xbd827a7b	-0.063710175
36	0x3cb60384	0.022218473
37	0xbbcd9ca4	-0.0062747765
38	0xbd6253fc	-0.055255875
39	0xbd175c25	-0.03695311
40	0x3dacca92	0.08437075
41	0xbdcc3cfd	-0.0997257
42	0x3e06104b	0.13092153
43	0x3d685e26	0.056730412
44	0xbd14faf3	-0.036372136
45	0x3da3decf	0.08001482
46	0x3d94f031	0.072723754
47	0x3b8d543a	0.004313019
48	0x3de59e4e	0.11211835
49	0x3e17d1b9	0.14826097
50	0xbcf823ff	-0.030290602
51	0x3be5a739	0.00700846
52	0x3d62b084	0.05534412
53	0xbd9de189	-0.07709033
54	0x3dd3d78a	0.10343845
55	0x3d26b920	0.040703893
56	0xbcc43f46	-0.023955952
57	0x3d4fd4d4	0.050740078
58	0x3d7bc793	0.061469626
59	0x3bfdafb8	0.0077418946
60	0xbca69201	-0.020333292
61	0x3daf0200	0.08545303
62	0xbc99a51a	-0.018755484
63	0x3da4eee0	0.08053374
64	0x3d98a0da	0.07452555
65	0xbd7058f6	-0.05867859
66	0xbcfe8782	-0.031070475
67	0x3d680158	0.056641906
68	0x3c16bf89	0.009200939
69	0x3e28be42	0.16478828
70	0x3e07855e	0.1323447
71	0x3d65bd70	0.056088865
72	0x3ddb1997	0.1069824
73	0xbd6b9500	-0.057515144
74	0x3d8bd990	0.06828606
75	0x3d554866	0.052070998
76	0x3dd21ed2	0.10259785
77	0xbd2ab8d7	-0.041680183
78	0xbd56de07	-0.052457836
79	0x3c74ffc5	0.014953558
80	0x3e1c2108	0.15246975
81	0xbdcef0f2	-0.101045504
82	0x3c280a7b	0.010256405
83	0x3cbca89c	0.023029618
84	0xbcc620b6	-0.02418552
85	0xbc147fb7	-0.009063653
86	0x3d595e64	0.053068534
87	0xbcfdd4b3	-0.030985212
88	0x3de87bd7	0.113517456
89	0x3cc0074e	0.023440983
90	0x3d259af4	0.040430978
91	0x3ce9760b	0.02849867
92	0x3d688c0b	0.05677418
93	0x3dc481b9	0.09595055
94	0x3d057539	0.032582495
95	0xbc0b041f	-0.008484869
96	0xbd4cbe69	-0.049986277
97	0x3cb16668	0.021655276
98	0x3d6839cc	0.056695744
99	0xbc272f1c	-0.010204103
100	0xbd1b5ed1	-0.03793222
101	0x3c4bcd73	0.01243912
102	0xbdeb47b6	-0.11488287
103	0x3a45a06e	0.00075388595
104	0xbdbd3de9	-0.09240324
105	0xbb471335	-0.0030376439
106	0x3b247a47	0.0025097297
107	0xbc1172f3	-0.008877504
108	0xbd257dec	-0.04040329
109	0x3daafbe8	0.083488286
110	0xbd335187	-0.043778922
111	0x3cc671aa	0.024224121
112	0x3d1d6845	0.038429517
113	0x3de80f93	0.113310955
114	0x3dbcea44	0.0922437
115	0xbd9bf7a1	-0.07615591
116	0x3c83c61c	0.016085677
117	0x3d36299e	0.044473283
118	0x3dc8c90c	0.09803972
119	0x3c04563c	0.0080772005
120	0xbda2f68c	-0.07957181
121	0x3d6570d6	0.05601581
122	0xbdba2c65	-0.09090499
123	0x3db933a0	0.0904305
124	0xbe009549	-0.12556948
125	0x3dab1d06	0.08355145
126	0xbda1a0f8	-0.078920305
127	0xbd2f45b5	-0.042791087
128	0x3d0ed98e	0.034875445
129	0xbd5721a0	-0.0525223
130	0x3d81c1f3	0.06335821
131	0x3b0d2134	0.0021534683
132	0xbdb46cdf	-0.08809828
133	0xbc1fc05f	-0.009750455
134	0x3db9cf18	0.09072703
135	0x3d2c1352	0.042010613
136	0x3d903ff6	0.070434496
137	0x3dc7304e	0.0972601
138	0xbc4351af	-0.01192133
139	0xbe2f872d	-0.17141409
140	0xbdf9ae7f	-0.121914856
141	0xbda7eb4a	-0.08199175
142	0xbdfa3657	-0.12217396
143	0xbd6efbf1	-0.05834574
144	0x3d0d75e2	0.03453625
145	0xbc7ba950	-0.015360191
146	0xbd9652f9	-0.073400445
147	0x3d9867c7	0.07441669
148	0x3d4affcb	0.04956035
149	0x3d4908ed	0.049080778
150	0x3baff304	0.005369546
151	0x3e01565f	0.12630604
152	0x3de15565	0.11002616
153	0x3d598b6c	0.05311148
154	0x3e880560	0.265666
155	0xbcbe107b	-0.023201218
156	0xb9bc8ed0	-0.00035964558
157	0xbcbde2f6	-0.023179512
158	0x3e75c108	0.23999417
159	0xbe15bd47	-0.14622985
160	0x3bf087e0	0.0073404163
161	0xbc808624	-0.015688963
162	0x3c94bc42	0.018156175
163	0xbd159c98	-0.036526293
164	0x3d8ecb14	0.06972328
165	0xbcb23e8d	-0.021758342
166	0x3d61a9fa	0.055093743
167	0xbda2d449	-0.079506464
168	0xbd54d9c0	-0.051965475
169	0xbcfa2997	-0.03053741
170	0x3cac1c74	0.021009661
171	0x3d932239	0.07184262
172	0xbd7f8672	-0.062384076
173	0xbdccca27	-0.09999495
174	0xbccaef57	-0.02477233
175	0xbbc12932	-0.0058948034
176	0x3d3afc13	0.045650553
177	0xbd1f63e3	-0.03891362
178	0xbd429128	-0.047501713
179	0x3d914184	0.07092574
180	0x3d9ba792	0.07600321
181	0x3d3083d0	0.043094456
182	0x3c8b22c6	0.016984355
183	0x3d8294b6	0.063760206
184	0xbb385522	-0.0028126915
185	0x39c8009c	0.00038147427
186	0xbd69f181	-0.05711508
187	0x3e0adb2d	0.13560171
188	0x3c7c973f	0.015416919
189	0x3da15534	0.07877579
190	0x3d74feaf	0.059813198
191	0x3c0dc239	0.008652263
192	0x3d3b9d38	0.045804232
193	0x3a1df74f	0.00060259266
194	0xbce090ef	-0.02741286
195	0x3c59a379	0.013283604
196	0x3b3c7c88	0.002876075
197	0xbd98a3dc	-0.07453129
198	0xbd862397	-0.06549757
199	0xbcc3125e	-0.02381247
200	0x3d8441db	0.064578734
201	0x3c5e8009	0.013580331
202	0x3d05fcee	0.032711916
203	0xbe158fc2	-0.1460562
204	0xbce52d9d	-0.027975852
205	0x3db588c1	0.08863974
206	0xbda213eb	-0.07913955
207	0xbcc2b07c	-0.023765795
208	0x3dd355f4	0.10319129
209	0x3ddc2674	0.10749522
210	0xbc147608	-0.009061344
211	0x3d26c8ff	0.04071903
212	0x3d7f9ba0	0.062404275
213	0x3d53c5cf	0.051702317
214	0x3e0f7147	0.14008056
215	0x3d7a82ac	0.061159775
216	0xbd34c690	-0.044134676
217	0xbd5d5ca5	-0.05404343
218	0x3cb68a8d	0.022282863
219	0x3d4ea911	0.050454203
220	0xbde561b3	-0.11200275
221	0xbd319a5c	-0.0433601
222	0x3cd22037	0.025650127
223	0x3d238d1b	0.03992949
224	0x3bbd9663	0.0057857498
225	0x3cc49756	0.023997944
226	0xbc239299	-0.009983682
227	0xbd5f887a	-0.054573514
228	0x3d6baf2a	0.057540096
229	0x3d2a22cf	0.041537102
230	0x3d4f4fa4	0.05061306
231	0xbca88faf	-0.020576326
232	0x3d33244c	0.043735787
233	0xbcbdbb35	-0.023160556
234	0xbbbb7b12	-0.0057214582
235	0xbca74c16	-0.020422023
236	0x3d4c9fa4	0.049956933
237	0x3a500da2	0.0007936602
238	0xbd1a6fca	-0.037704267
239	0x3ccbcb52	0.024877224
240	0xbdd7d503	-0.10538676
241	0x3da7e9c9	0.08198888
242	0x3d1ac8a8	0.037789017
243	0xbd81f871	-0.063462146
244	0x3c3755c5	0.011189883
245	0x3d9f798b	0.07786854
246	0xbd847986	-0.06468491
247	0xbe189435	-0.14900286
248	0x3e52e373	0.20594577
249	0xbc20cddd	-0.009814707
250	0xbb9b0487	-0.0047307643
251	0xbc15bcf4	-0.009139288
252	0x3bbdedf7	0.00579619
253	0xbd233884	-0.03984882
254	0xbdd820e3	-0.10553148
255	0x3cb76756	0.022388142

mlp_encoder.3.bias f4 [64]
0	0xbd349b11	-0.044093195
1	0x3c88adbc	0.016684406
2	0xbda7289b	-0.08162042
3	0xbc0a901e	-0.008457212
4	0xbd4c01ba	-0.049806334
5	0xbb8dd31e	-0.0043281456
6	0xbc2e00db	-0.010620321
7	0x3c396ded	0.011317712
8	0xbce318ca	-0.027721781
9	0xb9510229	-0.00019932598
10	0x3d8cf830	0.068832755
11	0x3d419b35	0.047267158
12	0xbcee0b14	-0.029058017
13	0xbd79bac5	-0.060969133
14	0xbd854b75	-0.06508533
15	0x3c8f5b30	0.017499536
16	0x3b92630a	0.004467373
17	0x3d9a8d96	0.075465366
18	0x3d3bd2bd	0.045855273
19	0xbd8c4d7d	-0.06850717
20	0xbd694572	-0.056950994
21	0xbd897257	-0.06711262
22	0xbc14e501	-0.009087802
23	0x3cde776f	0.02715656
24	0x3cf3c3d8	0.029756472
25	0xbd749aa7	-0.0597178
26	0x3d149a33	0.03627987
27	0x3d5f8dc5	0.05457856
28	0xbd377a58	-0.04479441
29	0xbd9ee56d	-0.07758603
30	0xbd81f5e1	-0.06345726
31	0xbda851df	-0.08218741
32	0x3dafeab4	0.08589688
33	0x3d8b1584	0.06791213
34	0x3b50614d	0.0031796277
35	0xbd3b7f9f	-0.045776006
36	0x3c0b1903	0.00848985
37	0xbda2b01b	-0.07943746
38	0x3b1448dd	0.0022626438
39	0x3d9b6539	0.07587666
40	0xbcf17e7e	-0.029479261
41	0x3d82502e	0.06362949
42	0xbc7c4072	-0.015396224
43	0x3d8e115c	0.06936905
44	0x3d7ddbb5	0.061977107
45	0xbd99591a	-0.07487698
46	0x3d512965	0.051064868
47	0x3c7982eb	0.015228967
48	0xbd94f384	-0.072730094
49	0x3d9b6827	0.07588225
50	0xbdadfe6e	-0.08495794
51	0xbd1f2b68	-0.038859755
52	0x3d8b741b	0.06809255
53	0x3ce67a0e	0.028134372
54	0x3ceaac6c	0.02864667
55	0xbd92f865	-0.07176284
56	0x3d5cbf82	0.053893574
57	0xbd85337f	-0.06503963
58	0x3d9740e9	0.073854275
59	0xbd1518d2	-0.036400624
60	0x3c6aba71	0.014326678
61	0xbc830c9f	-0.01599723
62	0x3d47bdec	0.048765108
63	0x3c8150fe	0.01578569

mlp_encoder.4.weight f4 [64]
0	0x3f7c0c6e	0.98456466
1	0x3f76f8b5	0.96473247
2	0x3f6c8105	0.9238437
3	0x3f774773	0.965934
4	0x3f737d41	0.95113
5	0x3f55cc20	0.83514595
6	0x3f70f8cc	0.94129634
7	0x3f7e2d40	0.99287796
8	0x3f55e23f	0.8354835
9	0x3f76ca40	0.9640236
10	0x3f7c19a2	0.9847661
11	0x3f848726	1.0353744
12	0x3f6d82ba	0.927776
13	0x3f837da4	1.0272717
14	0x3f684013	0.9072277
15	0x3f72400d	0.94628984
16	0x3f594d5f	0.84883684
17	0x3f760456	0.96100366
18	0x3f7eb703	0.99498004
19	0x3f66bb9e	0.9013003
20	0x3f55747f	0.83380884
21	0x3f68b0fa	0.90895045
22	0x3f93b663	1.1540035
23	0x3f67af14	0.90501523
24	0x3f77ce57	0.96799225
25	0x3f839eeb	1.0282873
26	0x3f556476	0.83356416
27	0x3f8a9e11	1.0829488
28	0x3f65309b	0.8952729
29	0x3f6688ff	0.9005279
30	0x3f7d2758	0.9888816
31	0x3f743ceb	0.95405453
32	0x3f8006d0	1.0002079
33	0x3f517db3	0.81832427
34	0x3f637144	0.88844705
35	0x3f88af2b	1.0678457
36	0x3f998d3d	1.1996228
37	0x3f7dfa9e	0.99210536
38	0x3f72a465	0.94782096
39	0x3f8b4bc7	1.08825
40	0x3f6fb43d	0.93634397
41	0x3f6dec03	0.9293825
42	0x3f80dbcb	1.0067075
43	0x3f6fd2d5	0.9368108
44	0x3f84c1cc	1.0371642
45	0x3f801de0	1.0009117
46	0x3f70e718	0.9410262
47	0x3f83a2f9	1.028411
48	0x3f5527f3	0.8326408
49	0x3f6d6790	0.9273615
50	0x3f837d38	1.0272589
51	0x3f996efe	1.1986997
52	0x3f8433d6	1.0328319
53	0x3f6cbcc5	0.9247554
54	0x3f834eab	1.0258383
55	0x3f761030	0.9611845
56	0x3f5b2728	0.8560662
57	0x3f6e8e72	0.93186104
58	0x3f87d02f	1.0610408
59	0x3f4dbe88	0.8036885
60	0x3f739924	0.9515555
61	0x3f78ba14	0.9715893
62	0x3f8197d8	1.0124464
63	0x3f82cd91	1.0218984

mlp_encoder.4.bias f4 [64]
0	0xbde001c7	-0.10937839
1	0x3d25f95d	0.040521014
2	0xbd0253e5	-0.03181829
3	0x3c899659	0.016795324
4	0xbc1da4cb	-0.009621809
5	0x3c0473ce	0.008084251
6	0x3dc4dab0	0.09612024
7	0xbc9d5e90	-0.01921013
8	0x3d641294	0.05568178
9	0xbc860020	-0.016357481
10	0xbd9bc63f	-0.07606172
11	0x3d7d0f95	0.06178244
12	0xbd07e29d	-0.0331751
13	0x3c2da291	0.010597841
14	0xbdf10f21	-0.11770464
15	0x3d041169	0.032243166
16	0x3cdfa0ad	0.027298296
17	0xbb9452c7	-0.0045264694
18	0x3d443861	0.04790533
19	0x3d9d3b16	0.076772854
20	0x3d86f5ba	0.06589837
21	0x3d4073d7	0.046985473
22	0xbe224953	-0.15848283
23	0x3c1a6b18	0.009424947
24	0x3ca42807	0.020038618
25	0x3cbdb837	0.02315913
26	0x3df4ee12	0.11959471
27	0x3db60e96	0.08889501
28	0xbcf91aa9	-0.03040822
29	0x3d36a21a	0.044588186
30	0x3be21395	0.006899307
31	0xbcfb291c	-0.03065925
32	0x3c27b63c	0.010236319
33	0x3d074a03	0.033029567
34	0xbcf8a6ec	-0.030353032
35	0xbc9f326f	-0.019433228
36	0x3dc59920	0.09648347
37	0xbdb0921e	-0.0862162
38	0x3a84409f	0.0010090059
39	0x3c14f192	0.009090798
40	0x3e23c1a7	0.15991841
41	0xbca8da74	-0.020611979
42	0x3d55a5b8	0.052159995
43	0xbdc3a423	-0.09552791
44	0x3df43d42	0.119257465
45	0xbcfe516f	-0.03104469
46	0x3da15a34	0.07878533
47	0xbc5bc835	-0.013414432
48	0xbd5369d4	-0.051614597
49	0xba2ab51d	-0.00065119733
50	0x3d6cb33b	0.057788115
51	0xbdaac427	-0.08338194
52	0xbbbd3c02	-0.0057749758
53	0x3dc326d4	0.0952889
54	0xbcee23eb	-0.029069861
55	0xbd7fb88a	-0.06243185
56	0x3d00172f	0.03127211
57	0xbce6554e	-0.028116848
58	0x3c1c6a3a	0.009546811
59	0x3be9554e	0.007120765
60	0xbd1178b8	-0.035515517
61	0x3d2e3a93	0.04253633
62	0x3d1267cd	0.035743523
63	0xbd5af003	-0.05345155

mlp_encoder.4.running_mean f4 [64]
0	0x3f4331c6	0.76247823
1	0x3e7a4f3c	0.24444288
2	0x3e011cf3	0.126087
3	0x3d8de07a	0.06927581
4	0xbf44ac67	-0.76825565
5	0x3f8280d7	1.0195569
6	0xbf9d6fed	-1.2299782
7	0x3e05b365	0.13056715
8	0xbff75bff	-1.932495
9	0xbe98c809	-0.29840115
10	0xbf80c060	-1.0058708
11	0xbf7a1855	-0.9769338
12	0x3e014bde	0.12626597
13	0xbf808ae1	-1.0042382
14	0x3ebab9e8	0.3646996
15	0x3f91a633	1.1378845
16	0xbf87856c	-1.0587592
17	0xbd7ca182	-0.061677463
18	0x3f351cda	0.7074715
19	0xbfb0cf37	-1.3813237
20	0x3fd249cd	1.6428772
21	0x3c839b18	0.016065165
22	0x3e4480c5	0.19189747
23	0xbe038108	-0.1284219
24	0x3f604e84	0.87619805
25	0x3f066963	0.5250456
26	0xbf861e02	-1.0477908
27	0x3d988882	0.07447912
28	0xbf690165	-0.9101775
29	0xbf82753a	-1.0192025
30	0xbf7ff78c	-0.999871
31	0x3e34cec5	0.17657001
32	0xbd92d957	-0.071703605
33	0xc007541f	-2.1145093
34	0x3fd53600	1.6657104
35	0x3e5e6013	0.21716337
36	0xbfdded4f	-1.7338046
37	0x3f5ae321	0.8550282
38	0xbd9f54f1	-0.07779873
39	0x3d9f2f15	0.07772652
40	0x3f2cfdbe	0.6757468
41	0xbf94bc0a	-1.1619885
42	0x3f803261	1.0015374
43	0x3ecbc3ac	0.39797723
44	0x3f033bcc	0.5126312
45	0xbf1dd3d1	-0.6165133
46	0xbf1fded3	-0.6244938
47	0xbf9b4b37	-1.2132329
48	0xbec44ab2	-0.38338238
49	0x3f37ea94	0.7184231
50	0xbeda99e0	-0.42695522
51	0xbfac2fdd	-1.3452107
52	0xbf82b7a4	-1.0212293
53	0x3c9c4413	0.019075429
54	0xbf98fd2d	-1.1952263
55	0xbe110a81	-0.14164163
56	0xbf34f0fb	-0.70680207
57	0x3fe51214	1.7896142
58	0x3eeba9f8	0.46028113
59	0x3e871b11	0.26387838
60	0x3f58337d	0.84453565
61	0xbe721a4d	-0.23642845
62	0x3b70cb2e	0.0036742198
63	0xbfb63c76	-1.4237201

mlp_encoder.4.running_var f4 [64]
0	0x3eb4ff79	0.3535116
1	0x3f400002	0.7500001
2	0x3f3bda79	0.7338024
3	0x3e9dc986	0.30817813
4	0x3f006b12	0.50163376
5	0x3efc73cc	0.49307096
6	0x3ed89eac	0.42308557
7	0x3eaca12a	0.33716708
8	0x3ebcc0c3	0.36865816
9	0x3f4c71ca	0.7986113
10	0x3f3a5594	0.7278683
11	0x4001e531	2.0296137
12	0x3ed57b71	0.4169574
13	0x3f673ec9	0.9033018
14	0x3e87d2f9	0.26528147
15	0x3e9fa04c	0.31176984
16	0x3e461f51	0.19347884
17	0x3e52bb9f	0.20579384
18	0x3e8e7955	0.27826944
19	0x3f261e9f	0.64890474
20	0x3eda1201	0.4259186
21	0x3eb5a9d1	0.35481122
22	0x3fdb1796	1.7116573
23	0x3efbb1b9	0.4915903
24	0x3f5e6afb	0.8688199
25	0x3f1ab30f	0.6042947
26	0x3ea74711	0.32671407
27	0x3f97b8f7	1.1853322
28	0x3eb806a6	0.35942572
29	0x3f55581e	0.8333758
30	0x3fa4bb61	1.2869684
31	0x3ef13d15	0.47116914
32	0x3f26ee73	0.65207595
33	0x3e69c08d	0.22827359
34	0x3f1a9558	0.6038413
35	0x3f21fa35	0.6327241
36	0x3f67f5e9	0.90609604
37	0x3e96e92c	0.2947477
38	0x3f143332	0.5789062
39	0x3f0b8823	0.54504603
40	0x3e86bcff	0.26316068
41	0x3f863f20	1.0488014
42	0x3f1ec296	0.62015665
43	0x3f2ee4e8	0.68318033
44	0x3f88008d	1.0625168
45	0x3f18c77a	0.5967938
46	0x3f89e3b4	1.0772614
47	0x3f0784d4	0.52937055
48	0x3f0945b5	0.5362199
49	0x3e2420e7	0.16028176
50	0x3f622eaa	0.88352454
51	0x3f80d02e	1.0063531
52	0x3f0a146b	0.53937405
53	0x3ea89d25	0.32932392
54	0x3f5d694c	0.86488795
55	0x3fc61eb8	1.5478125
56	0x3e294e3d	0.16533752
57	0x3f3c729f	0.736124
58	0x3f7e61df	0.9936809
59	0x3e50179f	0.2032151
60	0x3f06b069	0.5261293
61	0x3f273bcc	0.6532562
62	0x3f93a8c5	1.1535879
63	0x3e547f28	0.20751631

latent_layer.0.weight f4 [32, 64]
0	0x3ca69009	0.020332353
1	0x3d31cd29	0.043408547
2	0x3d2560db	0.04037557
3	0xbe272dab	-0.16326015
4	0x3bbe5b23	0.005809204
5	0xbdac8893	-0.08424487
6	0x3b67563f	0.003529921
7	0x3b4229b6	0.0029626912
8	0xbd536ff0	-0.051620424
9	0x3dcc9850	0.09989989
10	0x3e2f058c	0.1709196
11	0x3b5d849f	0.0033800972
12	0x3d07bafb	0.033137303
13	0x3d721034	0.059097484
14	0xbd2bfe1d	-0.04199039
15	0x3e12cf68	0.14336932
16	0x3e0ed8c4	0.13949877
17	0x3debce05	0.115139045
18	0x3d4a3dc9	0.04937533
19	0x3d951de0	0.07281089
20	0x3d3a4177	0.04547259
21	0x3e2dd3f4	0.16975385
22	0xbd3ba69f	-0.0458132
23	0x3c37ca2e	0.011217637
24	0xbd97b56e	-0.07407652
25	0x3d0a7c5a	0.033809997
26	0xbd7f18f8	-0.06227967
27	0x3d44c060	0.048035026
28	0x3dbc5375	0.09195606
29	0xbd933e50	-0.071896195
30	0xbd406ef8	-0.046980828
31	0xbdcf75a2	-0.101298586
32	0xbcf2a2d4	-0.029618658
33	0x3d54a1a9	0.051911984
34	0xbc8ac39d	-0.016938979
35	0xbdd9c54e	-0.10633336
36	0xbc9f70e9	-0.01946302
37	0xbcd6b670	-0.02621004
38	0x3d15d070	0.036575735
39	0xbd556feb	-0.052108686
40	0x3d692a55	0.056925137
41	0xbd63a416	-0.055576406
42	0x3ccf11b6	0.025277
43	0x3d8c5791	0.068526395
44	0xbe0146fc	-0.12624735
45	0xbd91bbda	-0.07115908
46	0x3d144334	0.036196902
47	0xbdb5e3fc	-0.08881375
48	0x3dcf8508	0.101327956
49	0x3c86f75d	0.016475374
50	0x3d61185f	0.054954883
51	0x3d6c1667	0.057638552
52	0xbd80db68	-0.062918484
53	0x3c183b3e	0.009291468
54	0xbe13af8e	-0.14422438
55	0x3ca9f040	0.020744443
56	0xbdc0d474	-0.09415522
57	0xbd7a3e54	-0.061094597
58	0x3dc77f64	0.09741095
59	0xbd51ef39	-0.05125353
60	0xbdace2a8	-0.08441669
61	0x3c8329af	0.016011087
62	0x3e2cfbd5	0.16892941
63	0x3dc5f2eb	0.096654736
64	0xbb98e919	-0.0046664593
65	0xbe010565	-0.12599714
66	0x3c80ef7d	0.015739197
67	0xbdd370e8	-0.103242695
68	0xbce4e1a9	-0.027939634
69	0xbd0529d9	-0.032510612
70	0x3e29766b	0.16549079
71	0xbd8cde3b	-0.068783246
72	0xbc735e1a	-0.0148539785
73	0x3e1a5795	0.15072472
74	0x3db27959	0.087145515
75	0x3e680c16	0.2266086
76	0x3e22bf3e	0.15893266
77	0x3dad74ec	0.08469567
78	0xbd31b708	-0.043387443
79	0xbdcb3da1	-0.09923864
80	0x3cd95569	0.026529985
81	0x3ce9d1df	0.028542457
82	0xbd376432	-0.044773288
83	0x3d7785c3	0.0604303
84	0x3a9e755a	0.0012089417
85	0x3b8e8797	0.0043496597
86	0x3c6ef299	0.014584207
87	0xbbe47a74	-0.0069726054
88	0xbd14ef22	-0.036360867
89	0x3d80c65b	0.06287833
90	0x3dbcfc76	0.092278406
91	0xbd87ccc2	-0.06630851
92	0xbce7f28b	-0.028313896
93	0x3d4d8ee0	0.050185084
94	0xbc0c4c29	-0.00856308
95	0x3cd038c0	0.025417686
96	0xbd586f31	-0.052840415
97	0x3e2826b7	0.16421019
98	0xbce6b4d6	-0.028162401
99	0x3dbca626	0.09211378
100	0xbc7276e9	-0.014798858
101	0x3c918d2c	0.017767511
102	0xbd1cd077	-0.038284745
103	0x3c82f25f	0.015984712
104	0x3cef6e46	0.029227387
105	0xbe11a382	-0.1422253
106	0x3ccc19fd	0.024914736
107	0xbdc97247	-0.0983625
108	0x3d0b7878	0.034050435
109	0xbddcc38f	-0.10779487
110	0x3e2e7a8b	0.17038934
111	0xbd2511dc	-0.040300235
112	0x3dd43306	0.103612944
113	0x3da9ead2	0.082967415
114	0xbd4a77a4	-0.049430504
115	0x3d3878c9	0.045037065
116	0x3d9dc050	0.07702696
117	0x3ce8515b	0.028359106
118	0xbd1bf641	-0.038076643
119	0x3cd0e950	0.025501877
120	0xbc485679	-0.012227648
121	0xbcfd84e4	-0.030947156
122	0xbd9e1ef8	-0.077207506
123	0xbd7385eb	-0.059453886
124	0xbcc9cf23	-0.024634903
125	0x3d72abbb	0.059245806
126	0x3e2627fd	0.16226192
127	0x3c817dbe	0.015807029
128	0x3d14ab73	0.03629632
129	0xbe13650a	-0.14394012
130	0x3d2258f3	0.03963561
131	0xbd248f75	-0.040175874
132	0xbb8c792e	-0.0042869067
133	0xbdc96033	-0.09832802
134	0x3bd364ec	0.00645124
135	0xbdcacba1	-0.099021204
136	0xbcb267aa	-0.021777947
137	0x3d1b678d	0.03794055
138	0x3dd3433f	0.103155605
139	0xbd469506	-0.048481964
140	0xbdff2552	-0.1245829
141	0x3e45d716	0.1932033
142	0xbe0ce160	-0.13757849
143	0xbbecc907	-0.0072261128
144	0x3d3366a8	0.043799073
145	0x3cbaa413	0.022783315
146	0x3d4c98ac	0.049950287
147	0xbcefd632	-0.029276941
148	0x3c9aae3d	0.018881911
149	0x3d96c2a2	0.07361342
150	0xbcb2d06c	-0.021827899
151	0xbe3095b0	-0.17244601
152	0x3d518d33	0.05116005
153	0x3d65e03c	0.05612205
154	0x3d1d973d	0.03847431
155	0x3e22f658	0.15914285
156	0xbc8ba039	-0.017044174
157	0x3d05d25f	0.03267133
158	0x3e037603	0.12837987
159	0xbd1a5e69	-0.037687693
160	0x3d90e514	0.07074943
161	0x3e10558e	0.14095137
162	0x3c43111d	0.011905936
163	0xbd5d6b92	-0.054057665
164	0x3abaef73	0.0014262035
165	0xbda6e631	-0.08149374
166	0x3c39d983	0.011343363
167	0xbd3b4797	-0.04572257
168	0xbdeecb9e	-0.11659931
169	0xbd35201e	-0.044220082
170	0xbde028cb	-0.10945281
171	0xbda95fb3	-0.08270206
172	0x3d9762bc	0.07391879
173	0xbe03049d	-0.12794729
174	0x3d21e8cf	0.039528664
175	0xbcd4f1a5	-0.025994131
176	0x3d6f7f08	0.058470756
177	0xbd8c1461	-0.068398245
178	0xbe21221d	-0.1573567
179	0xbb392e23	-0.002825626
180	0xbdd31a5c	-0.10307762
181	0xbd62d10a	-0.055375136
182	0x3de82fd5	0.11337248
183	0x3ddfa2a3	0.10919692
184	0xbcec6896	-0.028858464
185	0xbd5efe75	-0.054441888
186	0xbdce61cb	-0.10077246
187	0x3d9afa4d	0.07567272
188	0xbdf57fe5	-0.119872846
189	0xbd47d661	-0.048788432
190	0xbc80dc7d	-0.015730137
191	0xbbed1b93	-0.007235953
192	0x3cc742ad	0.024323786
193	0xbd553388	-0.052051097
194	0xbd5b367f	-0.05351877
195	0x3db74077	0.089478426
196	0xbd8c5873	-0.06852808
197	0xbe0baf23	-0.13641028
198	0x3ce96f1f	0.02849537
199	0xbc7dbd72	-0.015487062
200	0xbdbfd01e	-0.09365867
201	0xbbc1d01c	-0.005914701
202	0x3ddba429	0.107246704
203	0x3df7e8bc	0.121049374
204	0x3d8b0648	0.067883074
205	0xbcd9f515	-0.026606122
206	0xbd3178b2	-0.043327995
207	0x3e123483	0.14277844
208	0xbd3242e0	-0.04352081
209	0x3ca7dfc9	0.020492451
210	0x3cfb79d0	0.030697733
211	0xbcf44fff	-0.029823301
212	0x3dd681e3	0.10473993
213	0x3e2962fa	0.16541663
214	0xbc0f6f1f	-0.008754521
215	0x3d88fd8d	0.06688986
216	0xbc9a8976	-0.018864375
217	0x3c96bfae	0.018401947
218	0xbd3adbcf	-0.045619782
219	0x3e38ec22	0.18058828
220	0x3a8a08f2	0.001053123
221	0x3cae6e5a	0.021292854
222	0xbe0b4681	-0.13601114
223	0xbdabb68d	-0.08384428
224	0x3ad1148e	0.001595156
225	0x3d8fc722	0.070204034
226	0xbd1d15e1	-0.038350943
227	0xbdc670cb	-0.09689482
228	0x3da828a4	0.082108766
229	0xbd8e67b4	-0.069533736
230	0x3ded37da	0.115829185
231	0xbb75b857	-0.0037493908
232	0x3dd70cce	0.10500489
233	0x3d362f2f	0.04447859
234	0xbdf76e77	-0.12081616
235	0xbd0cdf9c	-0.034392938
236	0x3e68b236	0.22724232
237	0x3d438d74	0.047742322
238	0xbc73bc6f	-0.014876469
239	0x39572ea3	0.00020521371
240	0xbd4eaddc	-0.050458774
241	0xbdaf2ed4	-0.08553854
242	0xba25db42	-0.00063269224
243	0xbd4822ad	-0.048861194
244	0x3da7e7f3	0.08198538
245	0xbda6ced7	-0.0814492
246	0x3b17aa73	0.0023142367
247	0x3d814776	0.06312458
248	0x3c5e5365	0.0135696875
249	0x3c64aa90	0.013956681
250	0xbd8bfebb	-0.06835695
251	0x3e37a687	0.17934619
252	0x3d81bde4	0.06335047
253	0x3dafa1b9	0.08575768
254	0xbce6667a	-0.028125037
255	0x3d409120	0.047013402

latent_layer.0.bias f4 [32]
0	0xbdfe4d6e	-0.12417112
1	0x3da7e4b7	0.08197921
2	0xbdade519	-0.084909625
3	0xbde5b16a	-0.1121548
4	0x3d9b6bba	0.075889066
5	0x3d8729e4	0.06599787
6	0xbd188a20	-0.0372411
7	0xbdb2568e	-0.08707915
8	0x3cf52d07	0.029928697
9	0xbd99b990	-0.07506096
10	0x3d5773ff	0.052600857
11	0x3d79d199	0.060990904
12	0x3d8ad6f7	0.067792825
13	0xbcdd2380	-0.026994467
14	0xbdf80f18	-0.12112254
15	0x3d62f8eb	0.055413168
16	0x3dbee0e7	0.093202405
17	0xbcf999db	-0.030468872
18	0xbdc063ba	-0.09394021
19	0x3da7495a	0.081682876
20	0x3b7905bc	0.0037997803
21	0xbcf528ef	-0.029926745
22	0x3d562755	0.052283604
23	0x3dec1a79	0.11528487
24	0x3d7fe48f	0.06247383
25	0xbdb806c0	-0.089856625
26	0xba94357b	-0.0011307442
27	0xbdec6963	-0.115435384
28	0x3d39dabf	0.04537463
29	0x3d070355	0.032962162
30	0x3d845c58	0.06462926
31	0xbcb36bb1	-0.021901937

latent_layer.1.weight f4 [32]
0	0x3f8507f2	1.039305
1	0x3f904817	1.1272
2	0x3f836c80	1.0267487
3	0x3f798402	0.9746705
4	0x3f790f3d	0.97288877
5	0x3f67c9c2	0.90542233
6	0x3f8c53e0	1.0963097
7	0x3f885200	1.0650024
8	0x3f956faa	1.1674702
9	0x3f8466a8	1.0343828
10	0x3f831f61	1.0243951
11	0x3f81b5a8	1.0133562
12	0x3f810c4b	1.0081877
13	0x3f895160	1.0727959
14	0x3f6d8a94	0.9278958
15	0x3f7015de	0.93783367
16	0x3f7d0df4	0.98849416
17	0x3f7c9fc2	0.9868127
18	0x3f7d4bad	0.989436
19	0x3f9316c4	1.1491323
20	0x3f85f77a	1.0466149
21	0x3f84d5f8	1.0377798
22	0x3f6bf9f0	0.9217825
23	0x3f63c715	0.8897565
24	0x3f681c7a	0.9066845
25	0x3f6db855	0.92859393
26	0x3f8de2b3	1.1084808
27	0x3f798690	0.9747095
28	0x3f77f389	0.9685598
29	0x3f7456e4	0.95445085
30	0x3f6fbf64	0.93651414
31	0x3f84466c	1.0333991

latent_layer.1.bias f4 [32]
0	0xbdefa50d	-0.11701403
1	0xbe6a30a5	-0.22870119
2	0x3d99e977	0.07515233
3	0xbcc18657	-0.023623629
4	0xbc99ec7b	-0.01878952
5	0xbe224af8	-0.15848911
6	0xbcbf5a53	-0.0233585
7	0xbdc3ab05	-0.09554104
8	0xbdd174da	-0.10227366
9	0xbe4206e4	-0.18947941
10	0xbd69c3cb	-0.05707149
11	0xbdcce037	-0.10003703
12	0xbd83e494	-0.06440082
13	0xbd22e4d7	-0.03976902
14	0xbd8caaa0	-0.06868482
15	0x3c428096	0.011871478
16	0x3d5c22a2	0.053743966
17	0xbd664779	-0.056220505
18	0xbe33dee2	-0.17565492
19	0xbd289d5b	-0.04116569
20	0x3c60af24	0.013713632
21	0xbdf56c35	-0.119835295
22	0x3bdce1e5	0.006740796
23	0x3d83b9d9	0.06431932
24	0x3d8265d5	0.06367079
25	0xbbd24b81	-0.006417692
26	0xbe6f5e9c	-0.23375934
27	0x3d4366ea	0.04770557
28	0x3d30a856	0.043129288
29	0x3db14fd5	0.08657805
30	0xbdba363a	-0.09092374
31	0xbda4797e	-0.08030985

latent_layer.1.running_mean f4 [32]
0	0xbd6c96ba	-0.05776093
1	0x3e8438d7	0.25824615
2	0xbe25b199	-0.1618103
3	0x3db89f1f	0.09014725
4	0x3dad5ccd	0.08464966
5	0x3dd6e2de	0.1049249
6	0xbd5fb319	-0.05461416
7	0xbd6e9a83	-0.058252823
8	0xbcb7543a	-0.02237903
9	0x3df3a566	0.118967816
10	0x3e5450d8	0.20733964
11	0x3db1c521	0.086801775
12	0x3d88b6cb	0.0667549
13	0xbdf76562	-0.12079884
14	0xbda1a870	-0.07893455
15	0xbd9e8c0a	-0.07741554
16	0x3dbdee54	0.09273973
17	0x3d7deb4b	0.06199197
18	0x3d1aa8a9	0.037758503
19	0xba2685c6	-0.0006352331
20	0xbba8663e	-0.0051391413
21	0x3c894b20	0.016759455
22	0xbd91b1d5	-0.07113997
23	0x3e5a2749	0.21304049
24	0x3d936cb1	0.071984656
25	0xbe66ba5c	-0.22532028
26	0x3e50da10	0.20395684
27	0xbdcdb560	-0.1004436
28	0x3de3a2ee	0.11115061
29	0xbd05f765	-0.032706637
30	0x3e3ec946	0.18631467
31	0xbd9ead10	-0.07747853

latent_layer.1.running_var f4 [32]
0	0x3f6f2da4	0.9342902
1	0x3f706788	0.93907976
2	0x3e5cbb8d	0.2155592
3	0x3e9e8e14	0.30967772
4	0x3f79d9d2	0.9759799
5	0x3ebd334f	0.36953208
6	0x3ee17505	0.4403459
7	0x3f8fddca	1.123956
8	0x3f8c0979	1.0940391
9	0x3f888d71	1.0668164
10	0x3ec25c56	0.37961072
11	0x3f6b0973	0.91811293
12	0x3f4e9a96	0.8070463
13	0x3f8e8d19	1.113681
14	0x3f89a9ce	1.0754945
15	0x3e8610ab	0.26184592
16	0x3e9cf096	0.30652303
17	0x3f882c6b	1.0638555
18	0x3f26b3d3	0.6511814
19	0x3faaab7e	1.3333585
20	0x3ef81836	0.4845597
21	0x3fa7ff23	1.3124737
22	0x3eab04d8	0.33402133
23	0x3f647af1	0.89250094
24	0x3f1caff7	0.61206
25	0x3f52c449	0.8233076
26	0x3ee2084e	0.4414696
27	0x3ec93be0	0.39303493
28	0x3ed51e0b	0.41624483
29	0x3f42f566	0.761557
30	0x3ee8126c	0.45326555
31	0x3f1df134	0.6169617
