src/robots/onnx/tron_a1_policy.onnx (onnx, 752071 bytes, 10 tensors)

obs_mean f4 [40]
00000000: 77e8 273e 1869 6d3b ac55 373d 3fa4 233c
00000010: 7704 ac3d d58b 673b 15fc 513d ce72 52bc
00000020: ec3f 7bbf 5969 663e 7742 0b3a 7ae5 a73a
00000030: 398b 513c b421 223d 2db5 4a3e fc47 c2bd
00000040: 7d8c e83b 0a4b 95bc c264 52be fc98 cfbd
00000050: f098 bcbb 093d a63c ec0b c93d 6d1a e6bc
00000060: 4589 823c 3fc6 69bb 815c b7bd 584d 22bd
00000070: 73c1 533e c1aa 583e 7cce 35be 7c2d 58be
00000080: 3555 58be ad67 22be 24e1 403e 6930 00be
00000090: 1ca5 423c 52a5 42bc 0a63 fc3c 0863 fcbc
0.16397272 0.003622597 0.044759437 0.00998789 0.08399289 0.003533115 0.051265795 -0.012844754
-0.9814441 0.22501124 0.0005312333 0.0012809478 0.012789541 0.039582923 0.19795676 -0.09486386
0.0070968256 -0.018224258 -0.20546249 -0.10136601 -0.0057555363 0.020292776 0.09816727 -0.028088773
0.015934596 -0.0035671142 -0.089531906 -0.039624542 0.20679264 0.21158887 -0.17754549 -0.21111101
-0.21126254 -0.15859862 0.18835884 -0.12518467 0.011880185 -0.011880236 0.030808944 -0.03080894

obs_std f4 [40]
00000000: 856a 2a3f 7520 053f 5403 873e e5d7 363f
00000010: 0fd4 693f 723f 153f b8f7 133e 059f cb3d
00000020: b9c7 9a3d 843c 303f 4d3b 0c3f be47 0c3f
00000030: 18f4 0a3e c189 3c3e b2f5 333e ac61 1d3e
00000040: fa6a 0d3e a53a 453e 3b6d 303e 65de 343e
00000050: b9d7 db3f 5436 0440 ceca 2f40 6580 6e40
00000060: ac43 de3f 14e4 0640 6e98 2c40 d809 7940
00000070: ff2a c33e 8e1b c03e 10d0 3e3f b5b0 003f
00000080: 7465 c43e 0a8a bd3e c066 383f da52 073f
00000090: 3cb1 363f 3cb1 363f 9e21 333f 9e21 333f
0.66568786 0.5200265 0.26369727 0.7142318 0.913392 0.58299935 0.14449966 0.0994244
0.07557625 0.6884234 0.54777986 0.5479697 0.13569677 0.18411924 0.17574194 0.1536929
0.1381034 0.19260652 0.17229168 0.17662962 1.7175208 2.065816 2.7467532 3.7265866
1.7364402 2.1076708 2.6968036 3.8912258 0.3811874 0.37521023 0.7453623 0.50269634
0.38358653 0.37019378 0.72031784 0.52860796 0.7136419 0.7136419 0.6997317 0.6997317

mlp.0.weight f4 [512, 40]
00000000: e7a8 b2be cbea 06bd ea20 fdbd 95aa cd3d
00000010: 89b0 ca3e 3c0c a9bd a4d1 923d f4c0 d6bd
00000020: 4a38 f83d d09f d43e dcfe 023f 795f 6f3e
00000030: bec2 073e 8065 773e 167a f6bd 2127 8b3e
00000040: db5e 213d c814 7a3d 94a2 9ebd d8b3 0cbd
00000050: fdec 503d 75de 0f3e cc4a 8ebd 80d5 0abd
00000060: f3ce 0d3e 2be4 563c 79f0 9f3d e39b 163e
00000070: a80c ce3c 68ff 44be d765 fdbc 1d0d 0fbe
00000080: d417 0d3d 9084 bfbd 2655 af3e 4583 2a3e
00000090: f0e9 c43d 2adb 213e cbc4 ddbd e022 c8bc
000000a0: bbb1 29be 9cb0 b23d 7d23 3bbe 2873 b33e
000000b0: 42fa 23be 5e89 9bbe 76b4 74be 8704 8fbe
000000c0: a9ff 4d3b c635 e2be 5f06 dcbe 3c65 1c3f
000000d0: 5ae8 e33c 97a0 d63d 7430 92be c4b5 c9be
000000e0: 8a15 13bf 1c50 ea3d 0712 a0be d1ad 26bc
000000f0: aa86 b33d 6ed1 d0bd 1487 40be 74a7 8eb7
00000100: 1a62 15bd 2d68 59be d742 6bbd b351 913d
00000110: 629d b63d 87bd 103e 7505 c1be bdc4 ae3c
00000120: 2671 e2bb 92cc 953d 3f1e 90bd 9ec0 6cbc
00000130: 20d8 28ba 6dc6 d63c 3995 883d 514d 783c
00000140: f045 66be 49a4 e8bd a12a 613d 7c06 f73c
00000150: ae7e b4be f1fa 93be 4263 423e c70d 09be
00000160: cab1 783c c9a4 59bd e348 c63e bb27 af3e
00000170: 180b 73be 4581 393e 6937 2cbe ceab 43bd
00000180: 40ec 1cbd 227b a9be adef 073f 69e8 d2be
00000190: 94c3 edbd 3e3b 063c 0d00 483e 0773 b03b
000001a0: 1f0e 073e 97cf 53bd 2ed3 6f3e 468e aebd
000001b0: 77de 57bd b0b2 aa3c e687 743e 9873 c13d
000001c0: b87c 6f3c 3980 6dbd 91e5 243e 1f38 2cbe
000001d0: dd76 193d b760 303e ca89 f1bd 1af7 a4bd
000001e0: cc21 103f 72ac 833c 8842 29bd 7b6f 92be
000001f0: 4f1d 89be d92e 3eb8 f4da 93bd 10e0 b63e
00000200: e364 cf3d 2a48 04bf c876 603e 2510 3b3e
00000210: aed9 963c 78c2 c53e 72b2 88be 7900 43bd
00000220: a573 93bd 5e62 87bd 5329 bfbe 481c 223e
00000230: 74d5 43be 34fd 22bd 851e f1bd be37 67bc
00000240: d66b 93be ddc3 06be 6a2c cebd 3e3a c13d
00000250: 595a 09bd 8af0 b4bd 0c12 8b3e 2fae adbd
00000260: 9b13 c23d d2e8 773e a36a 88be 1197 c4bd
00000270: 4806 aabd 5406 83bd 9e1e 8dbd 87e2 ddbb
00000280: 5fd7 343e b2bf d33e 80de fb3d 42ae 873e
00000290: 6358 10bd f2c5 71be eb4d 603e 327b e5bc
000002a0: b917 533d 87ca 103e 498e 54be 963b 3f3e
000002b0: 9ae3 243e 48de ad3d f619 533e a5a3 103c
000002c0: c8b4 443c 47df 04bf 451b 2e3f db05 ddbe
000002d0: cfb5 8d3c 0bc5 d63b 2ea5 4dbd 3cfe 8d3d
000002e0: 354f 0c3e 749b d73d 4b5e 4abd 6aa6 20be
000002f0: c2af 293b 0b62 b4bc 05da 2a3d b4e5 183d
00000300: 4f3d ef3d 46f1 d7bd 75e4 86bd b0ff d0bd
00000310: 8a08 4a3c 8dfd d53a eb62 3cbe fc34 13be
00000320: 4caa 11be c939 19be e396 923e 63b0 6a3e
00000330: 3337 153e aa2d a23e 595b 673e 18b2 6dbe
00000340: 4884 57bd f46c 7d3e 2299 9d3e 4c94 a5be
00000350: f0e2 a3be 4655 063e 2cc3 f3be 79a1 bfbe
00000360: 676f 8c3d cab3 573e e95d 973d f258 f1bd
00000370: 89b2 b2bd 6e95 0f3d 561e e23c d05e 38bc
00000380: 2c7f e33d 4bdc b5bd b7fd 5d3e 5b89 143e
00000390: e3ee 123c 15ce 693d 6f6b a6bd afae bc3d
000003a0: 133e 6e3e 362e 22bd ee27 9b3e 1a52 81bc
000003b0: 2cb0 40bd 91a7 383d f5b6 113d a7f0 023c
000003c0: 9679 d2be d141 883e b94d 393d ecd8 7d3d
000003d0: cb0b f3bd 5a32 f43d 7bd4 f53c e66e 1a3e
000003e0: c81c 413c 9789 e4bd cae2 b9be 711d 173d
000003f0: fb58 95bd da31 1a3e 4768 5ebd 6429 643d
-0.34894487 -0.03293876 -0.123597935 0.100423016 0.3958781 -0.08254287 0.07168892 -0.10486022
0.12120111 0.41528177 0.51170135 0.23376264 0.13257882 0.24159813 -0.12035005 0.2717829
0.0393971 0.061054975 -0.07745853 -0.0343512 0.05100726 0.14049704 -0.0694786 -0.033895016
0.13848476 0.013115923 0.078095384 0.14707904 0.02515252 -0.19238055 -0.03093235 -0.13969846
0.034446552 -0.09351456 0.3424465 0.16651638 0.096149325 0.1580626 -0.10828551 -0.024430692
-0.16571705 0.08725092 -0.18275256 0.35048795 -0.16013435 -0.3037824 -0.23896965 -0.27933142
0.0031432903 -0.4418165 -0.4297361 0.6109197 0.027820755 0.10479849 -0.28552592 -0.3939649
-0.5745474 0.11441061 -0.31263754 -0.010173277 0.087659195 -0.101961955 -0.18801528 -1.7005696e-05
-0.03647051 -0.21231146 -0.05743679 0.07095661 0.08916737 0.14134799 -0.37699476 0.021334046
-0.006910461 0.07314409 -0.07037019 -0.01445022 -0.00064408965 0.026217664 0.06669087 0.015155152
-0.22487617 -0.1135946 0.054972295 0.03015446 -0.352529 -0.2890239 0.18983176 -0.13384162
0.015179107 -0.053135667 0.38727483 0.3421 -0.237347 0.18115719 -0.16818012 -0.047771268
-0.038311243 -0.33101755 0.5310009 -0.4119294 -0.11609569 0.008192835 0.1953127 0.005384806
0.1318898 -0.051711645 0.23420402 -0.0852323 -0.052702393 0.020837158 0.23879966 0.09445876
0.014617138 -0.05798361 0.16103198 -0.16818283 0.037466872 0.17224394 -0.11793859 -0.080549434
0.5630157 0.01607344 -0.041323215 -0.28600678 -0.26780173 -4.534316e-05 -0.07219496 0.3571782
0.101266645 -0.51672614 0.21920311 0.18267877 0.018414345 0.3862493 -0.26698643 -0.047607873
-0.07199792 -0.06610559 -0.37336215 0.15831101 -0.19124395 -0.039792255 -0.11773399 -0.014112411
-0.2879321 -0.13160653 -0.10067065 0.09434937 -0.033533428 -0.08834942 0.27162206 -0.084804885
0.09476396 0.24209908 -0.26643857 -0.09599126 -0.08301979 -0.06397691 -0.068906054 -0.006771389
0.17660283 0.4135719 0.12298298 0.26500136 -0.035240542 -0.23610666 0.21904723 -0.028012846
0.051536296 0.14139758 -0.20757402 0.18675074 0.16102448 0.084896624 0.20615372 0.008828078
0.012005992 -0.51903194 0.6801036 -0.4316853 0.017298607 0.006554251 -0.050206356 0.06933257
0.1370209 0.10527697 -0.04940633 -0.15688482 0.0025892113 -0.022019407 0.041711826 0.037328437
0.116816156 -0.10544066 -0.065865435 -0.102050185 0.012331137 0.0016326174 -0.18397109 -0.1437568
-0.1422512 -0.1496345 0.28630742 0.22918849 0.14571838 0.31675464 0.2259344 -0.23212469
-0.052616388 0.24748594 0.30780894 -0.32339704 -0.32009077 0.13118467 -0.47609842 -0.3742788
0.06857186 0.21064678 0.07390959 -0.11784543 -0.08725459 0.035054617 0.027602356 -0.011253074
0.111082405 -0.08879908 0.21678816 0.14505522 0.008968088 0.0570813 -0.0812596 0.09213006
0.23265867 -0.03959485 0.303039 -0.01578622 -0.04704301 0.04508168 0.035574872 0.007991946
-0.41108388 0.26612714 0.045240138 0.06197445 -0.11867484 0.11923666 0.030008545 0.15081367
0.011786647 -0.11159056 -0.3630584 0.036893312 -0.07292362 0.1505808 -0.054298665 0.055703536

mlp.0.bias f4 [512]
00000000: 53f6 13be de4c df3b 447c 03bf c57e 4dbe
00000010: f0b3 333e fad9 17bf 4089 38bf 49b3 a8bd
00000020: 86f6 f5be 73cc a6be 19b7 3fbf 2514 e8be
00000030: 2a37 3a3d eaab b7be 3e62 70bf c9ba 4ebf
00000040: 0f16 3abf 4d99 fabe e572 463c 0b9a 0ebf
00000050: 5b3c bbbd 6577 ed3d 7873 2fbf d75f c9be
00000060: a30b 54be 7b2d 47be cdd1 00bf b32a 47be
00000070: 79ab 17be ace8 d9be dc08 a5be 85ee f5be
00000080: e4de 30bf ac64 51bf 08ac a0be bbd1 c3be
00000090: f3f1 f5be 2799 20bf 4d25 0abf c63a 9ebe
000000a0: 16c9 84be 0e47 8ebf b0b9 20bf 5002 763d
000000b0: c1c8 0dbf d5fc e0be 19c4 c5be aa92 f8be
000000c0: 6992 13bf 1dee 59bf 2df2 0bbf 3523 66be
000000d0: e390 56bf 0c73 1dbf c9da 60bf 72ed 973b
000000e0: 4855 c0be 9245 9abd 4d08 28bf b863 3cbf
000000f0: c3c9 b4be cfa5 6abe 8287 93be 1caf 26be
00000100: bda4 c1be 7612 31bf d9f1 e3be b10e 1abf
00000110: 0db5 d8be 7dfb f8be 3829 b8be 0df6 17be
00000120: 3f91 46bf 4265 04bf cc06 2dbf 7ee8 96bc
00000130: 1de8 d4bd 6518 94be ee5d 23bf 01be 21bf
00000140: 701c 3bbf e5f8 10bf 0322 34bf 6713 12bf
00000150: 5424 cbbe e094 80bf a235 eebe 2e82 bfbe
00000160: feac 2abf 4f34 b6be e22e aa3b 4d16 47be
00000170: 4863 0bbf 94b5 14bf 2180 d7bc 6d3a 50bf
00000180: 1b0f 1abf a3ae d9bd ce84 1cbf fb40 40bf
00000190: 1386 06bf 2a80 50bf 839d 3ebe 6115 3bbf
000001a0: 78c6 00bf e149 adbc 8b12 b2be c17f d03d
000001b0: 46da 47be f417 44be 48ef 2abf c32d 7fbf
000001c0: b46d 9bbe 46f7 d9be 76e5 4d3d bf75 ecbe
000001d0: a698 9fbe 1c63 d73d 67a8 5abf 46c5 d7be
000001e0: eb6d d23e 6f71 02bf c5c8 97be 8da3 2abf
000001f0: 2806 36bf 3b67 6abf 3f11 e1be 0e71 c7bd
00000200: ff78 0abf 32ae 0dbe 5ad9 94be 3a5d 44bf
00000210: e1ff d5be 8e85 44bf 5dc7 efbd a495 a5be
00000220: 17fa 46bf 80a1 6abd 26eb c33d f164 aabe
00000230: 7b9f e9be f4fd 1ebf 5b59 16be ce2f e2be
00000240: c664 03bf e002 59bf 3096 8cbe fc1e 48bf
00000250: b7c6 20bf b61a bebd d45f bbbe 33e3 4e3d
00000260: 948d 75be 9d1b a9be 5ec9 3abf 771a 4bbf
00000270: b356 24bf d7b8 0ebf 3fd2 dfbe 1b9f 2cbe
00000280: fe2a 8ebe 2115 2ebf 19d9 52bf f4fd 97be
00000290: a6a5 08bf a529 be3c 7c85 01bf 0289 8ebc
000002a0: e1d3 14bf f63a c4bd 4781 3ebd d46c 07be
000002b0: 1b9a bbbe 5d12 babe a40d 25bf afd5 c7bb
000002c0: ea11 54bf 0124 59be 52ed a4be b50c bfbe
000002d0: bca7 fabe ef80 adbe 78ca d0be 8f6e 0abe
000002e0: e8c1 92be e32b 5bbe 4020 ebbe d590 07be
000002f0: e52e 4cbe 5d6d e3be e8c8 31bd 2819 e3be
00000300: 7083 84be 8d1a 62bc 8f4c 0e3e 6708 2ebf
00000310: 9867 22bf fc9c 34be e3ed 20be 279f 8bbe
00000320: 64c4 09bf 60b9 58be 6fa3 52be 0f43 77bf
00000330: 3c5d 95be 739a 8b3b cfd3 f3be 49ae efbe
00000340: 94a1 b0be bdf1 3fbe 4faf 0fbf 4c48 063c
00000350: 464f 1ebf 92b2 f3be e2c0 6dbf 9612 9ebd
00000360: 3b7d adbd b9b3 27bf 28db 89be b10d d03c
00000370: 3432 7fbe c677 21be ea6e c8be f778 25bf
00000380: a4a8 24bf ff7b e2be 3c93 acbe 7ae0 8dbd
00000390: 5b5d 46bf 57b3 e5be f95c 12bf 648b 18be
000003a0: 38bd fdbe f435 26bf aace 89be 9139 e8be
000003b0: ee9b 0c3c d948 05bf 011c 52bf 626b 23bf
000003c0: 1e93 e53d 94ad bdbe 1feb 6a3e 3350 2abe
000003d0: be83 903d c6e1 cebe a610 69bd 8ab4 bebe
000003e0: e96e 2bbf b5df 84be bedc 14bc 0d65 ffbe
000003f0: 1f42 30bf b7e3 30bf 5068 90be 9f1d 11bf
-0.14449434 0.006814583 -0.5136149 -0.2006789 0.1754911 -0.5931698 -0.72084427 -0.08237321
-0.48039645 -0.32577857 -0.7488876 -0.4532787 0.045462765 -0.35873348 -0.93899906 -0.8075376
-0.7268991 -0.48945084 0.012112354 -0.557038 -0.09142371 0.11595038 -0.68535566 -0.39330932
-0.20707564 -0.19450943 -0.5032013 -0.19449882 -0.14811505 -0.42560327 -0.32233322 -0.48033538
-0.69090104 -0.8179424 -0.3138125 -0.3824595 -0.48036155 -0.6273369 -0.53963166 -0.30904216
-0.25934666 -1.1115434 -0.62783337 0.0600608 -0.5538445 -0.43942896 -0.38626173 -0.48549396
-0.5764528 -0.8512896 -0.54666406 -0.22474368 -0.8381483 -0.6150367 -0.8783384 0.00463646
-0.37565064 -0.07532801 -0.65637666 -0.7358966 -0.35310182 -0.22914813 -0.28814322 -0.16277736
-0.37820998 -0.69168794 -0.44520453 -0.6017867 -0.4232563 -0.4862937 -0.35968947 -0.14839955
-0.7756538 -0.5171701 -0.67588496 -0.018421408 -0.103958346 -0.28924862 -0.638152 -0.6318055
-0.7309027 -0.5662978 -0.703644 -0.57060856 -0.39676154 -1.0045433 -0.46525294 -0.37404007
-0.66670215 -0.35586783 0.005193577 -0.19442101 -0.54448366 -0.58089566 -0.026306214 -0.8133915
-0.601793 -0.106290124 -0.61140144 -0.7509915 -0.5254833 -0.8144556 -0.18614773 -0.73079497
-0.5030284 -0.021153392 -0.34779772 0.10180617 -0.19516858 -0.19149762 -0.66771364 -0.996792
-0.30357134 -0.42571467 0.05026766 -0.46183583 -0.3117115 0.105169505 -0.8541321 -0.42142695
0.41099486 -0.50954336 -0.29645362 -0.6665581 -0.71103144 -0.9156377 -0.4395847 -0.0973836
-0.54090875 -0.13835981 -0.29072076 -0.7670475 -0.41796783 -0.7676629 -0.117079474 -0.3234073
-0.77725357 -0.057282925 0.095663354 -0.33280137 -0.45629486 -0.6210625 -0.14682524 -0.44177097
-0.51325643 -0.8477001 -0.27458334 -0.7817228 -0.62803215 -0.092824385 -0.3659655 0.050509643
-0.23979789 -0.3302888 -0.7296351 -0.7933726 -0.6419479 -0.55750793 -0.43715093 -0.16857569
-0.27767175 -0.6800099 -0.82362515 -0.29685938 -0.5337776 0.023213217 -0.50594306 -0.017399315
-0.581358 -0.095815584 -0.046510007 -0.13225108 -0.3664101 -0.36342135 -0.6447394 -0.006098471
-0.82839835 -0.2120514 -0.3221231 -0.37314382 -0.48956096 -0.3388743 -0.4077947 -0.13518737
-0.28663564 -0.2140346 -0.45923042 -0.13238843 -0.19939764 -0.44419375 -0.04340449 -0.4435513
-0.2588153 -0.0138002755 0.13896392 -0.6798157 -0.6343932 -0.1763801 -0.15715747 -0.2726986
-0.53815293 -0.21164465 -0.20570157 -0.965867 -0.29172695 0.004260355 -0.47622535 -0.46812657
-0.34498274 -0.1874456 -0.56126875 0.008195948 -0.6183971 -0.47597176 -0.9287244 -0.07718389
-0.084711514 -0.6550861 -0.26925015 0.025397154 -0.24921495 -0.15768346 -0.3914712 -0.646377
-0.64319825 -0.44235227 -0.3370608 -0.06927581 -0.774862 -0.44863388 -0.57173115 -0.14896923
-0.49558425 -0.64926076 -0.26915485 -0.4535642 0.008582098 -0.5206428 -0.8207398 -0.6383573
0.11209701 -0.37046492 0.22941254 -0.16632156 0.07056378 -0.40406626 -0.056900643 -0.37247115
-0.6696611 -0.25951925 -0.009085832 -0.49881783 -0.6885089 -0.69097465 -0.28204584 -0.56685823

mlp.2.weight f4 [256, 512]
00000000: 5dd4 fe3c 02be f3be 6039 793d 0c55 43bd
00000010: a00b 1abe c13a 30bd 45f4 2c3e 0be2 7ebe
00000020: 6ae3 c9bc 41c0 b43d 21ef f03d 49a8 a4bd
00000030: d456 d0be ffc3 05be 6be9 a53d aaf4 2d3e
00000040: 3b13 ee3d 7e90 183e 3eb2 523d a202 38be
00000050: 32ae c0bd 2125 7c3d 14a6 653d 8f57 d43d
00000060: 7f03 1a3e ecd8 2a3d 42b8 45be ad2a 233d
00000070: b5c2 19be 0402 65bc 79eb 48bc d0b4 513e
00000080: 6b2e 303e f893 ae3e 6f9a 0e3e c02d 223e
00000090: b010 c3be cccb 6d3d 4d0e 13bd e5b2 4fbd
000000a0: 1d88 afbe 998f 1b3e 36c6 7fbd 2570 d5bd
000000b0: 440a d1bd 24ea e6bd 88d2 083c ea20 5e3d
000000c0: e9f7 583e 772e 003e ba6e 05bd b0d2 10be
000000d0: 3de4 fc3d c8c8 7fbe 181c 7bbe bd39 48be
000000e0: 6dc1 e13d 7345 64be b885 22bd 0514 77bd
000000f0: e3c2 8fbd 5ede 573e 3227 14bd 3077 503c
00000100: f2a8 813d 1912 aabd b862 7abe 64b5 47bc
00000110: 8194 bc3c b993 29be f8d0 6fbd da82 07bb
00000120: 714c 4e3e 369f 66be db3b 4dbe c477 d23d
00000130: 77a6 30be db03 40be 423b cfbd 6d5b 56be
00000140: 8f95 87be ce49 6f3e 8e84 b03e 2d60 bdbb
00000150: e9af a1be 4d48 92bb f765 0f3e af3e 6abe
00000160: 1b7b 78bd 7ec9 fbbb df91 54bd 61a6 f4bd
00000170: 9df0 2fbd 78e3 bf3d 5076 cebd f514 a4bd
00000180: fdc1 c03d cdda 043e e1e7 223e fec5 a5bd
00000190: c377 8fbe 406f 8d3d a7ce 4bbd a5ac 7d3d
000001a0: 3c83 a83c e95f 00bc 5446 9c3d 1466 99be
000001b0: 3dec 313e 38df 6bbe 62c2 38be 41e9 d33d
000001c0: 1f46 893d 8718 7ebd 2080 0bbe a600 0f3e
000001d0: 7530 e03d 496b a2be ee5c 5ebd 7402 7c3d
000001e0: cf02 0c3e 6af3 62be 122f 073e 4439 3cbe
000001f0: 63a5 6e3d c42e 803e 29a5 043e dba1 89be
00000200: b049 7dbd 4c6f 323d bc73 74bd d54f 66bd
00000210: 28ec dc3e d061 313d b0e5 dabc 8951 ac3d
00000220: 71b0 463e e9c4 8abd 31ba 5dbe 912b abbb
00000230: fb87 ecbd 75a4 eabd fafe d7bd cac2 ddbc
00000240: 906a 35be fcee d83d 1295 28be 6d8d 4abe
00000250: d748 a83e d3c9 34be b006 86bb 924b 4abe
00000260: 3d76 65be 2d40 9ebe c6f1 1bbe db05 6a3e
00000270: 6bea d43d 129a 813e 4f0c 663e e8fe 8a3d
00000280: 546e 91be 14d3 debc a106 babd 3ae3 91be
00000290: e00c 19be d5bb 20be e36c 543e fbd8 823c
000002a0: c27f 42bd d72a f53d cbb7 b4be a34f fabd
000002b0: 2fbc 373e 0089 393e b3e4 5f3e 67e5 4dbe
000002c0: fbd2 0b3e 657b 683d 0d8e b53c d16b 1ebc
000002d0: f224 22be 01ec c3be f430 39bd f9b2 8cbd
000002e0: 1be1 a8be 5b5c 183d 9aa2 b03d c5e7 39bc
000002f0: 6c84 19be 6a5e e9bd d102 81bd e816 693d
00000300: afe4 373c 5f2b 11be b28c d7be dd6a 563e
00000310: 3130 81bd 04ef babd eb78 52bd 0e19 e8be
00000320: e547 7dbe fd93 b4be 0c65 053e 9051 2cbe
00000330: 8049 82be f225 94bd 0672 a3bd dc97 d83d
00000340: aa56 19be 7142 843d 0aba 6d3d 4c27 80be
00000350: 418d d2be 211f ea3d 84f5 413e 4109 093b
00000360: 2cd5 d23d 987e 163e df33 4cbe 4f2f 2cbb
00000370: 31df f2bb 86a6 40be 5c16 433c 8d8a 083d
00000380: 86ce b7be 2b0d cd3d 2a0a 4bbd 1b38 3fbc
00000390: bb6e b53e d0ca bc3e df96 543b 7ed2 b1be
000003a0: 0ba0 09be d9af 4a3d b4e1 4cbe 7890 123c
000003b0: fe76 f6bd 87ba 94be 0dba e73d fb36 ccbe
000003c0: a622 f1be 584d bdbe 2051 abbe f445 413e
000003d0: e5db d6bd a003 33bd 0da4 0bbe 59bd 1d3c
000003e0: da8e a3bd 4e27 483d 7aa0 75be ac95 24bd
000003f0: 2e52 473d 2de3 683d 8514 ea3c 9e6b 4cbd
0.031107122 -0.47605902 0.060845733 -0.04768853 -0.15043497 -0.043024782 0.16890056 -0.24890916
-0.024644572 0.08825732 0.1176436 -0.0803991 -0.40691245 -0.13063048 0.081011616 0.16987863
0.11624762 0.1489887 0.051439516 -0.17969754 -0.09408225 0.061558846 0.056066588 0.10368263
0.15040396 0.04171078 -0.1930857 0.03983562 -0.15015681 -0.013977531 -0.012263172 0.2047913
0.17205207 0.34097266 0.13926099 0.15837765 -0.3809867 0.058055684 -0.03590231 -0.050707716
-0.34283534 0.15191497 -0.062444888 -0.104217805 -0.10207036 -0.112751275 0.008350976 0.054230608
0.2118832 0.12517725 -0.0325763 -0.14142871 0.123482205 -0.24978936 -0.24522436 -0.19553275
0.11023221 -0.22292118 -0.039678305 -0.060321826 -0.070195936 0.2108092 -0.036170192 0.012723729
0.06331052 -0.08304233 -0.2445172 -0.012189243 0.02302003 -0.16560258 -0.058548898 -0.002067736
0.20146348 -0.22521672 -0.20042364 0.1027675 -0.17251001 -0.1875147 -0.101187244 -0.20933314
-0.26481292 0.23367998 0.3447613 -0.0057792873 -0.3157952 -0.0044641853 0.1400374 -0.22875474
-0.060664278 -0.007683932 -0.051896926 -0.11945797 -0.042954076 0.09369558 -0.1008116 -0.0801181
0.09412 0.12974091 0.15908767 -0.08094405 -0.28021058 0.06905985 -0.049757626 0.061932225
0.02057039 -0.007835367 0.076306015 -0.29960692 0.17375274 -0.2303437 -0.18042901 0.10347224
0.06702828 -0.06203511 -0.13623095 0.13965091 0.109467424 -0.31722477 -0.054287843 0.061525777
0.13672946 -0.22163168 0.1320155 -0.1838122 0.058263194 0.2503568 0.12953629 -0.26881298
-0.061837852 0.043563172 -0.059680685 -0.056228478 0.43148923 0.043306172 -0.026720852 0.08413989
0.19403245 -0.06775839 -0.21653058 -0.0052236994 -0.11549374 -0.11457149 -0.1054668 -0.027070422
-0.17716432 0.10592458 -0.16463116 -0.19780512 0.32868072 -0.17655115 -0.0040901527 -0.1975539
-0.22408386 -0.30908337 -0.15228948 0.22853796 0.10396274 0.2531286 0.22465633 0.06786901
-0.28404486 -0.02720026 -0.090832956 -0.28493673 -0.14946318 -0.15696652 0.20744662 0.015972605
-0.04748512 0.11971062 -0.35296473 -0.12222221 0.1794288 0.18118668 0.21864586 -0.20107041
0.13654701 0.056758303 0.022162462 -0.00966926 -0.15834406 -0.38265994 -0.0452127 -0.06870074
-0.32984242 0.037197452 0.08624764 -0.011346762 -0.14991921 -0.11394961 -0.06299365 0.05690661
0.011223956 -0.14176701 -0.4209953 0.20939203 -0.0630802 -0.0912762 -0.051384848 -0.45331615
-0.24734457 -0.35269156 0.13026828 -0.16827989 -0.254467 -0.072338 -0.079807326 0.1057584
-0.14974466 0.06457985 0.05803875 -0.2502998 -0.41123393 0.114317186 0.18941313 0.0020910057
0.102945656 0.14696729 -0.19941662 -0.0026273315 -0.0074118604 -0.18813524 0.011907186 0.033335257
-0.35899752 0.10012277 -0.04957024 -0.011671091 0.35436043 0.36873484 0.003243856 -0.34730905
-0.13439958 0.049484108 -0.20007974 0.008945577 -0.12034415 -0.2904856 0.11314783 -0.39885697
-0.47096747 -0.3697307 -0.3346033 0.18874341 -0.1049116 -0.04370463 -0.13636799 0.0096276635
-0.07986231 0.04886561 -0.23986998 -0.0401818 0.048662357 0.056857277 0.028574238 -0.04990732

mlp.2.bias f4 [256]
00000000: 0f3f b9be b4e4 a0be c29a 67bd b757 b8bd
00000010: 10a5 8dbe 9cb1 76be 0d34 8fbe 0dd2 06bf
00000020: 2217 dcbe e956 203d c72a fdbd a48f 83be
00000030: 7511 92bd 9367 07be 85eb 83be b884 83be
00000040: 85d3 c3bc 26c8 38be bb1e 89be f6d2 74be
00000050: 5805 27be e615 63be ca78 e1be 9775 3fbd
00000060: 11bf d5be 0bae 67be 8798 c3be b696 a7bd
00000070: 9bc8 56be ff98 73bd e52c 96be ef43 7abe
00000080: c909 b8be 8635 30be 2e42 98bc 224a 37be
00000090: bd09 0fbe 8547 36be 08ee 87be 2bb6 c7bd
000000a0: 2660 3ebe 382a 7abd 3752 0abe ba07 23be
000000b0: 0028 87be 814d 9bbe 65ac 76be 5570 c2be
000000c0: c924 20be f4e8 d4be 344d 033e 05d5 58be
000000d0: 99da ffbe 86b5 49be f675 b6be 630c 0dbd
000000e0: 3fe6 00bf e5f3 24be e142 0cbe c51e 90bd
000000f0: a2a0 2cbe dace 9bbe 41f9 94be 2dba 60be
00000100: 59ee 1bbe 8c1e a8be 4068 89be 6e27 7fbe
00000110: 96b2 e2be 33bf 64be 40c8 9bbd 4a4b 10be
00000120: 4e44 83be d19d dbbe 61f9 9ebe 68d6 943d
00000130: 4434 01bf bcbc 48be 7fbe 41be 9c77 c5be
00000140: 6ebc 16be 2e23 bcbd bb58 30be 3f09 dfbd
00000150: 8566 a8be 02a6 91be 541e 55be e5ec babe
00000160: 6c22 4cbe ae09 d2bd 54ca 81be af0f bcbd
00000170: 13c2 8fbe d170 e43c 2938 70be 010b d6bd
00000180: 68e3 7dbe 0df5 f1be e00d 62be e855 b8be
00000190: 697d 71be 21b5 21bf a70e 92be 584b 6dbe
000001a0: e647 89bd ab17 3bbe 3c53 9fbe 1ce6 80bf
000001b0: cf06 3bbe 1cf1 12be b163 bdbe a19f 85be
000001c0: fcb2 f8be 933e a1be cb04 9dbe b8b1 adbe
000001d0: f0fb 97be 36ba 89be 5e45 db3c 59ff c4be
000001e0: 9893 b5be 90a0 b8be 8bdf dbbe a8ef 1d3e
000001f0: 3589 9dbe 7d79 e4be a70d 80be 101a 26be
00000200: 7896 a5be d798 c43d 9e62 6ebe 9106 48be
00000210: 3e9b a0bd b708 c4be 7f91 1fbe f99b b33a
00000220: 5723 58be 02c6 c9be be7c 68be db09 28be
00000230: 0190 a5be 6006 eabe 1f24 2cbe a82c f4bd
00000240: 8741 afbe b82c 79be e182 cbbe 47df 90bd
00000250: be24 67be b9f6 31be 9fe1 aabd 562b b6be
00000260: b66d 64be 2011 92be 7597 5dbe d846 d6be
00000270: e419 a7be 6f39 95be 4378 a1bd 56b3 77be
00000280: 93ef 83be 57be 00be bd3b e7be c8a7 16be
00000290: b6a6 8abe d2e6 52bd b0ad 83be d770 b5be
000002a0: 07ba 58be 6065 4fbe 4212 5bbe d702 06be
000002b0: 65e4 a3be 79ee d8bd 188d b0be 3d00 11bf
000002c0: 8f3c 05be 2871 2abe d450 cabe 3103 d8be
000002d0: 2ed4 40be 9e7b 64be 2b8b 43be aebf 70be
000002e0: 26bf d1be d650 65be 0cf5 e8be 292c d3be
000002f0: 6187 c0be 3262 8bbd a21a 6ebe b53e 91be
00000300: 2430 37be 6a69 8dbe 8f46 08be 81ca 80be
00000310: d65d cebe a774 37be 26b1 59be 9ed1 97be
00000320: cdca c3bd 9e39 98be 171b 80be 1360 d6be
00000330: cf28 563d 04fc 81be eee8 c5be 9860 a0be
00000340: cbaa d5be 6bbd bbbe e06c 4abd 3ac3 8cbe
00000350: 60ca adbe 5ec1 ad3d 65d7 85be 1f8e 88be
00000360: 0f58 99bd 56ba c03d d735 84be 4278 51be
00000370: 527a f4be 9162 0bbf 5c47 4abe 1d4a b1bd
00000380: a694 f6bd 9e86 97be e09a b2be a9cd 5cbe
00000390: 783a 93bd 8910 9cbe f2cd 88be 9e49 28be
000003a0: 377c 2cbe 9dd4 85be f323 8cbe 1de7 14be
000003b0: 676b eebd 18a7 84be fd65 a6be 3600 cfbe
000003c0: aecf 41be 8e97 e1be 1da7 69be 1a79 cabe
000003d0: 7c1b 88be 2ccc b9be c60d cabe 0a3d a2be
000003e0: 6d76 92be 6b8c 8cbe 9263 44be 7613 0ebf
000003f0: 9a43 07be c786 883d dce7 6dbe 19e8 bdbe
-0.36180922 -0.31424487 -0.056544073 -0.09001105 -0.27664995 -0.2409119 -0.279694 -0.5266426
-0.429864 0.039145384 -0.12361675 -0.25695527 -0.07132236 -0.13223104 -0.25765625 -0.25687194
-0.023904571 -0.180451 -0.26781258 -0.239086 -0.16310632 -0.22176322 -0.44037467 -0.046743
-0.41747335 -0.22624986 -0.38202307 -0.08183043 -0.20974962 -0.05947208 -0.29331127 -0.24439977
-0.35944965 -0.17207918 -0.018586244 -0.17899373 -0.13968559 -0.1780072 -0.2654879 -0.09751543
-0.18591365 -0.06107542 -0.13507925 -0.15920916 -0.26397705 -0.30332568 -0.24089201 -0.37976328
-0.15639032 -0.4158398 0.1282242 -0.2117501 -0.49971464 -0.19698152 -0.35636872 -0.03443564
-0.5035133 -0.16108663 -0.13697387 -0.07037119 -0.16858152 -0.30431253 -0.29096416 -0.2194602
-0.15227641 -0.32835805 -0.2683735 -0.24917385 -0.44276875 -0.22338562 -0.07606554 -0.1409122
-0.2563805 -0.42893842 -0.31049636 0.07267457 -0.50470376 -0.19603246 -0.18920325 -0.38567817
-0.14720318 -0.091863975 -0.17221348 -0.108904354 -0.32890716 -0.28446966 -0.2081235 -0.3650886
-0.19935006 -0.102557525 -0.25349677 -0.09182679 -0.28077754 0.027885826 -0.23458923 -0.104513176
-0.2479378 -0.4725727 -0.22075605 -0.3600304 -0.23582996 -0.63167006 -0.28526804 -0.23173273
-0.06703167 -0.18270747 -0.3111819 -1.0070224 -0.18264316 -0.14349788 -0.3699012 -0.2609835
-0.48574054 -0.31493053 -0.3066772 -0.3392465 -0.296844 -0.2689988 0.026766475 -0.38476065
-0.35464168 -0.3606 -0.42943987 0.15423453 -0.30768743 -0.44623938 -0.25010416 -0.1622088
-0.3234136 0.095994644 -0.23279807 -0.19533755 -0.0784211 -0.382879 -0.15582846 0.00137031
-0.21107231 -0.3940888 -0.22703835 -0.1641001 -0.3233643 -0.4570799 -0.16810654 -0.1192258
-0.3422968 -0.24333465 -0.3974829 -0.07073837 -0.2257261 -0.17379273 -0.08343815 -0.35579938
-0.22307476 -0.2852869 -0.21639808 -0.41850924 -0.3263694 -0.2914538 -0.07884266 -0.24189505
-0.25768718 -0.12572609 -0.45162764 -0.14712441 -0.27080315 -0.05148966 -0.2571845 -0.35437652
-0.21164714 -0.20253515 -0.21393684 -0.13087021 -0.3201019 -0.1059236 -0.34482646 -0.5664099
-0.13011383 -0.16644728 -0.39514792 -0.42189935 -0.1883094 -0.22312781 -0.19096057 -0.2351062
-0.40966147 -0.22394118 -0.45499456 -0.4124463 -0.37603286 -0.06805839 -0.23252347 -0.28368154
-0.17889458 -0.27619487 -0.13308166 -0.25154498 -0.40305966 -0.17915593 -0.21258983 -0.29652113
-0.095601656 -0.29731458 -0.25020668 -0.41870174 0.05228501 -0.25387585 -0.38654274 -0.31323695
-0.41731867 -0.36667952 -0.049420238 -0.27492696 -0.33943462 0.084841475 -0.26140895 -0.2667093
-0.07487499 0.09410541 -0.25822327 -0.20456031 -0.47749573 -0.54447275 -0.19753784 -0.08656714
-0.12040071 -0.29594892 -0.34883785 -0.21562828 -0.071888864 -0.30481365 -0.26719624 -0.16434333
-0.16844259 -0.26138774 -0.27371177 -0.14541288 -0.11641579 -0.25908732 -0.32499686 -0.40429848
-0.1892688 -0.4406094 -0.22817655 -0.39545518 -0.2658347 -0.36288583 -0.39463633 -0.31687194
-0.28605977 -0.2745088 -0.19178608 -0.55498445 -0.13209382 0.06666332 -0.23232979 -0.3709114

mlp.4.weight f4 [128, 256]
00000000: 0320 45be e5c5 943d 41c0 dbbc 28b5 ea3c
00000010: 9768 34be d015 46be 07e2 d1be 7fc6 06be
00000020: 4972 a73d 023e e1bd 3b49 25be 45dd b53d
00000030: a80f 153e c2b8 52bd 20db 443e ffdb a9bc
00000040: 683d 18bc 43c7 14be cd98 173e 124c 903d
00000050: 731a 9abd 1b67 61be 988a 3a3e e87e 7ebe
00000060: 816f ef3d 6f1e e0bd a234 8abe 8c73 06bd
00000070: 2637 68be 9797 913c 06bb 56bd a652 fe3b
00000080: 988a 29be bb99 e6bd 091b d9bd 6ab9 50bc
00000090: 887a b93c 13e8 0c3e 5dac 46be 1720 233e
000000a0: ee28 de3d 2493 24be 7f2d 32bd fb5d 5cbd
000000b0: e594 b2bc e4d7 ee3c 77b0 3a3e dde7 673c
000000c0: 3d73 a638 1445 a1bd b543 96be 8881 70be
000000d0: 2fea 8c3d 2301 d83d 6ce3 7dbe 3e20 45be
000000e0: 93f3 99be 1c00 893d 6008 bbbd 042f bc3b
000000f0: f87e e6bd a9e5 b4bd a36c ffbd ae0f 57be
00000100: d623 dfbc af53 84bd 59b7 f8bd ebfe 4cbe
00000110: fda4 eabd b13f a5bd b337 903c 696a 81bd
00000120: db70 5bbd 2624 65be 1ca3 57be ed7d 77be
00000130: 3e28 3d3e 36f6 f439 54ff fabc 9c81 9bbe
00000140: 7733 b3bd 07cc cfbe 140a 3fbd 178c 0dbe
00000150: e219 9b3d 3566 60bd 669e eebc 67dc 0dbe
00000160: d3ee 69be 4f44 e1be d51c 203e ca27 d83d
00000170: 95b5 0d3e cba3 80be 9806 593d 5ea7 3c3d
00000180: db57 f03c b719 66be db8c 5cbc 0ccf 1bbe
00000190: a35e 21be 1d37 a33d 5106 e13e 59c2 df3d
000001a0: 15e7 19be 44e8 533d c80d 273d 8a6d e03b
000001b0: a006 213e cf2d 6a3d 8d20 033e bd58 a2be
000001c0: c873 2a3e fdfe 143e 823e b23b 5e61 37be
000001d0: 7457 b1bd a3c8 fd3d b718 0e3c 12f7 4e3e
000001e0: 52a7 a2be 59a4 c03d c584 1f3e 4819 2d3d
000001f0: 6a25 06bd 34e3 1ebd 1eed a03d 073c 9c3c
00000200: 8f01 1bbe 00ee 76be 0d61 56be 782e 5a3a
00000210: 6d72 213c 176b e03d 5e76 543d 7042 edbc
00000220: eb0c b33c e1a9 9ebb c060 6e3d 6648 b1bd
00000230: 4e25 db3b a997 79be e4ee a9bd 6fea 78bd
00000240: 0caf 953e f33d 453e 934e 7f3e 8c79 aa37
00000250: 929e 31be ef0a c33d 0561 89bd 2df2 0fbe
00000260: 1a82 593d c3d4 fe3d 6fd3 3f3c efe9 1cbe
00000270: 1cad 263e be72 b6bd 9a91 113d b7d4 e23d
00000280: f631 a9bc 45fd 87be 63ef 06bd 90fd 77bd
00000290: f16a 153c 7d2a e6bc 76fe ebbc 90c3 94bc
000002a0: 2d8f 2c3e 17f3 fd3c 21a9 1c3e 86b4 ad3d
000002b0: 0d54 0abc 2e57 73bd 27a1 c6bc f800 403e
000002c0: 7a6d 79bd cf43 b7bd c8d7 de3c 632d c8bd
000002d0: 1261 623e 05bd 4bbe 047c 75be 9988 d93d
000002e0: d619 993d eb20 bd3d 951a 853e 6e5a 2c3e
000002f0: 08d4 98bd 9dad 1cbd e8d9 98bc a884 f53c
00000300: 5935 c4bc d9b7 d1be a84e 0ebe 509e b8be
00000310: 790e b73d 5572 6d3d e263 e63d 4d7c 8abd
00000320: 547b 01bf f6ea 68bd a91e f73d 4d38 a13e
00000330: 6fb5 0f3d 391e 32be 585d d9bd 8c09 9b3e
00000340: 1789 093e 013d b73d f8d6 0c3e 3217 b03d
00000350: 534d 50be d58e 4ebe abc4 ddbc 62d0 8fbe
00000360: cc40 583e 717f 75bd 9762 92bd 7fe9 58bd
00000370: e99f c23d a5f5 29be 71ed 2ebe 2621 4e3d
00000380: 37fd 89bd 0fa6 81be c2cd 9f3e 1f22 98bd
00000390: 524c ee3c 0177 4ebc d0e0 07bd 6578 3fb9
000003a0: e6f5 efbd 6e87 843e acca aa3e 8033 703d
000003b0: c5dc 0abe 1c3a cf3d 392e 5e3d 356d 0b3d
000003c0: 44d7 53be 06e6 c0bd 978b 91bd ace6 413e
000003d0: 5665 ec3d ab9e 19be 6c71 a93d 73a1 2e3e
000003e0: 04ed 8c3d 0c48 86bd a81b f63d 8e81 003e
000003f0: 31a2 4dbb 7ded 29bd 899e a43d f4f1 a1bd
-0.19250493 0.07264308 -0.026825072 0.028650835 -0.17618023 -0.19344258 -0.40992758 -0.13161658
0.08176095 -0.10998155 -0.16141216 0.088800944 0.14556754 -0.05144573 0.19224215 -0.020734785
-0.009291984 -0.14529137 0.14804383 0.07045759 -0.07524576 -0.22011988 0.18216932 -0.24853098
0.116911896 -0.10943305 -0.2699328 -0.032825038 -0.22677287 0.017772479 -0.052424453 0.0077613173
-0.16556776 -0.112597905 -0.1060086 -0.012739519 0.022641435 0.13760404 -0.19401689 0.1593021
0.108476505 -0.16071755 -0.04350042 -0.053800564 -0.021799514 0.029155679 0.18231378 0.014154402
7.9369616e-05 -0.07874504 -0.2934853 -0.23486912 0.068806045 0.10547092 -0.24793786 -0.1925058
-0.30068645 0.06689474 -0.09132457 0.0057429094 -0.11254686 -0.08832867 -0.12471893 -0.21002075
-0.027238768 -0.06461274 -0.12144346 -0.20019118 -0.1145725 -0.08068789 0.017604684 -0.06319124
-0.053574424 -0.22377071 -0.21058315 -0.2416913 0.18472382 0.00046722748 -0.030639328 -0.30372322
-0.087500505 -0.40585348 -0.04664047 -0.13822971 0.07573296 -0.054784972 -0.029128265 -0.13853608
-0.2284501 -0.43997428 0.15635999 0.10554464 0.138388 -0.25124964 0.052984804 0.04605805
0.029338768 -0.22470747 -0.013461317 -0.15215701 -0.15758757 0.079694964 0.43950132 0.10925741
-0.15029557 0.051735178 0.040784627 0.0068489956 0.15725183 0.057172593 0.12805386 -0.31708327
0.1664573 0.14550395 0.0054395804 -0.17908236 -0.086592585 0.12391784 0.008672885 0.20211437
-0.3176828 0.09406347 0.15577991 0.04226044 -0.032750525 -0.038790897 0.078577265 0.019071592
-0.15137313 -0.24114227 -0.2093546 0.00083229644 0.009853941 0.10957926 0.051870696 -0.028962344
0.021856746 -0.0048420285 0.058197737 -0.08656387 0.0066877967 -0.2437426 -0.08297518 -0.06077045
0.29235113 0.19261913 0.24932317 2.0322179e-05 -0.17345646 0.0952357 -0.06707958 -0.14057226
0.05310259 0.12442925 0.011708125 -0.15323614 0.16276973 -0.08908604 0.035539247 0.110757284
-0.020653706 -0.26560417 -0.03294314 -0.06054455 0.009119735 -0.028096432 -0.02880786 -0.018159658
0.16851492 0.030999703 0.15298893 0.08481698 -0.008442891 -0.059409313 -0.024246765 0.1875037
-0.06089542 -0.0894848 0.027202502 -0.09774282 0.22107342 -0.19896324 -0.2397309 0.10621757
0.07475631 0.09234794 0.25996843 0.16831371 -0.07462317 -0.038251508 -0.018658593 0.029970482
-0.02395122 -0.40960577 -0.13897192 -0.36058283 0.08938307 0.057970364 0.1124952 -0.0676199
-0.5057881 -0.0568647 0.12066395 0.31488267 0.035085138 -0.17394342 -0.10613507 0.3028072
0.13431202 0.089471824 0.13753879 0.08598174 -0.20341997 -0.20171674 -0.027071318 -0.2808867
0.21118468 -0.05993599 -0.07147711 -0.052957054 0.09503157 -0.16597612 -0.17082764 0.05032458
-0.0673775 -0.25322005 0.31211668 -0.07428383 0.029089127 -0.012601615 -0.033173382 -0.0001826003
-0.11716823 0.25884575 0.3335775 0.058642864 -0.1356078 0.10118505 0.0542433 0.034039695
-0.20687586 -0.094188735 -0.07106703 0.1893565 0.11542766 -0.15001933 0.08273587 0.17053775
0.06881145 -0.065567106 0.12016994 0.12549421 -0.0031377191 -0.041486252 0.08038051 -0.07907477

mlp.4.bias f4 [128]
00000000: 041e 1dbe c537 b9bd df0b 33bf ddcf 193e
00000010: add8 82be 7931 d9bc 6f26 24bd d2a1 bcbc
00000020: b548 54be 1890 1dbe c8b0 dcbd 6967 8dbd
00000030: b2b0 adbb e536 363e 01a0 20bd 4f7e cdbb
00000040: 9d8d 9cbe 2d98 e63b 9544 d6be b2ad 133e
00000050: 995a afbd ec8f 2dbe 9c72 163c 6351 13be
00000060: 67b4 b7bd 4f85 c9bb ec58 4fbe d02a 59be
00000070: abb2 71be 51e8 31be 4825 0ebe b6a0 fbbe
00000080: 8b3f 8fbe c010 afbc f7c1 0ebd cc89 11be
00000090: 4b82 b3be 4310 253e 8feb 40be 8f19 27be
000000a0: ade3 c9bb 5088 7ebe 4f01 90be d86f a8bd
000000b0: 8efd c5be 49bc 0bbe 34e7 82be 1c4d 33bb
000000c0: aa20 13be b67f e73d 9bc2 4bbc e976 84be
000000d0: cdc8 babe 8304 1bbe 9aa8 2dbe 35dc 43be
000000e0: 0b0b c63c 53b3 513e d175 a0be d78a dd3c
000000f0: 7fa1 23be 4b8f b4be 8018 5dbe 0278 5abd
00000100: 1a4e 24bd 81d9 e83d 08b3 10bf 15cd d8be
00000110: adfe bdbe 3157 dbbd 2730 493d fd55 7cbe
00000120: d2e8 1d3e 39dc d1be 39d0 96bd 6423 91bb
00000130: 1497 a7be 669f d8bd b494 5ebe fd99 46be
00000140: 327e 19be c430 cdbe ad67 fdba 278a e8bd
00000150: 2919 80bd f54f 2ebd 171a bfbd 6856 07be
00000160: 7d58 59be b4c9 b6be 7bd9 16be dd03 9ebe
00000170: 4627 253e 5708 88be 1e42 28be ce6c adbe
00000180: e4cd b73d b35a 9ebe d5b7 79be ee67 93be
00000190: b02e 71be 2811 bcbd a173 29bd 892b aabe
000001a0: 9cb9 46be 6d0c 5f3c 3425 2fbe 61fd 05bf
000001b0: 6b6d 883d 8cbd 1bbe 414f b3bd dc0c 72be
000001c0: a624 033c 7699 d5be 717b 32bd 40cf 51be
000001d0: d8f8 d2be f80d 2abe e897 223d c49f 05be
000001e0: 6027 143e af40 483d cd28 0bbe 6536 a0be
000001f0: 2fc0 76be db48 91be bfef 90bd 6c8a 06be
-0.15343481 -0.0904384 -0.6993999 0.150207 -0.25555936 -0.026512848 -0.040075716 -0.02302638
-0.2073086 -0.15386999 -0.10775906 -0.069044895 -0.0053006047 0.17794378 -0.03921509 -0.0062711607
-0.30576792 0.0070371837 -0.418492 0.14421728 -0.08562202 -0.16949433 0.009182598 -0.14386515
-0.08969956 -0.006149925 -0.20248765 -0.21207738 -0.23603313 -0.17373778 -0.13881409 -0.4914605
-0.27978167 -0.021370292 -0.034852948 -0.14212722 -0.35060343 0.16119485 -0.18839858 -0.16318344
-0.0061611743 -0.24856687 -0.28125998 -0.082244575 -0.3867001 -0.13646044 -0.2556702 -0.0027359193
-0.14367929 0.11303656 -0.012436534 -0.2587197 -0.36481324 -0.1513844 -0.16958848 -0.19126971
0.024175188 0.20478563 -0.31339887 0.027043743 -0.15979575 -0.35265574 -0.21591377 -0.053337105
-0.040113546 0.113696106 -0.5652318 -0.42343965 -0.37108365 -0.1070999 0.049118187 -0.24642177
0.15420845 -0.4098833 -0.07363934 -0.0044292677 -0.3273245 -0.10577278 -0.21736413 -0.1939468
-0.14989546 -0.40076268 -0.0019333266 -0.113544755 -0.06254799 -0.04255672 -0.09331148 -0.13216555
-0.21225162 -0.35700762 -0.147314 -0.30862322 0.16128263 -0.26568863 -0.16431472 -0.33872074
0.089748174 -0.30928573 -0.24386533 -0.2879023 -0.23552966 -0.0918296 -0.041370038 -0.3323634
-0.19406742 0.013613802 -0.17104036 -0.5233975 0.06661495 -0.15209025 -0.08755351 -0.23637718
0.008004343 -0.41718644 -0.043574754 -0.20489216 -0.41205478 -0.16606891 0.03969565 -0.13049227
0.14468145 0.048889812 -0.13589783 -0.312915 -0.2409675 -0.28375897 -0.07076978 -0.13138741

mlp.6.weight f4 [16, 128]
00000000: a61f 7ebd 353f 88bc 18c4 aabc 2e20 ea3d
00000010: a95e ad3c 6afa de3a 3524 83bc e5dd 78bc
00000020: c4cb 06bd 88ae 6b3e 5a0a 5f3d 3886 08bd
00000030: 161f c4bc 74aa 9fbc d8b3 663d f7ef 86bc
00000040: 88da 2e3d 418a 4fbd f59b 1dbe 7800 883b
00000050: e624 d8bd ff64 13bd c6ff 6bbd e9bb 9d3c
00000060: e2a5 fabc 5a60 b63d 68f8 0ebd 119e fc3d
00000070: f48a 85bc 6d21 2b3e 9db3 183c a860 183c
00000080: af6c 9e3d 09cc cebd 484c 053e 2489 0bba
00000090: 9b14 44bd 4d42 82bd dd14 8ebc 8d6e b93d
000000a0: 7cd0 363c a97c 353d f187 5bbc 4698 883b
000000b0: ba09 c2bd af9d 833d 8481 ac3c 0e19 a53d
000000c0: 88e8 54bc 837f 33bd 1321 27bd afd7 0abe
000000d0: 4ea8 36bd ec5d 65bc 788b 96bd b33c c83b
000000e0: d1d7 423c 2b76 9bbc c0f2 bdbd 2a61 6cbc
000000f0: af40 09bc e0af 333d 9876 a2bd dd6f 37bd
00000100: 440c 0cba 5bd7 9d3d 7377 80bd 245a a6bd
00000110: c00f 0cbd 9abb ed3c ac52 f73b 0d0a 2bbd
00000120: e976 f2bc 4c04 d53d d055 bf3d e9ff 36bd
00000130: 2291 e3bd 72c6 873d 8023 13bd 10a4 e33d
00000140: 26bb e5bb 2a5d 6b3d 64a8 b1bd d549 fabb
00000150: 7bc9 0d3d 8294 18bd 3c77 58bc cf5a 39bd
00000160: aa0a cebc 042a d23c 7d39 813b bd66 643c
00000170: bd60 af3c 375b b1bc 3b38 773d 3cc3 0cbe
00000180: 27e9 1d3e 9497 e93d b8bc 1fbd 111d 83bc
00000190: d874 083d 6918 b4bb b467 ac3b 9f7d dbbc
000001a0: 2f09 33bd 7572 4f3d 00b1 bb3d 543e 25bd
000001b0: 2a90 18bc ab35 bebc a264 cdba 70c1 5d3d
000001c0: 22df e23c f158 13bd fb1e 473c 3f6d c43b
000001d0: 34fc 01be ab32 b53d 3a78 413d 8d38 8ebd
000001e0: 7bda 2d3d 2f8e 1f3c f43f 92bc c907 203c
000001f0: 989c a1bc 50c6 673c 7d96 d13c bae6 893d
00000200: ad40 e0bc af6b 873c 2fb2 e6bc 4ac3 be3c
00000210: 3547 d93c 0bb1 543c 9e84 62bb bb2c 103e
00000220: 3464 09bd 1a80 b53a 4981 963c 5dc4 583d
00000230: e928 2a3c 9f3e b1bb af50 1ebc 6bc4 2a3e
00000240: 4961 293d b06d 5a3c fcb7 213d bfc3 9e3d
00000250: 4085 523c 2312 2a3c 2052 cabb 3edc 29bd
00000260: dca9 663c ae0d 263c 21e1 1fbd dbc6 b43b
00000270: bc81 293b 2338 143d 62aa 5e3c 0005 e2bd
00000280: 3d87 2ebe 3c61 333b c8ae 7cba 9be2 853d
00000290: f48c 9c3d f991 e8bc 9a9a 86bc ef90 36bb
000002a0: f782 e9bd 4281 773d 50e3 a73b 4402 4dbc
000002b0: 2483 92bd f03a f1bb a772 85bd 75b5 503c
000002c0: acec 2dbc 4e84 743b cd6a 953b 3004 b9bd
000002d0: 5055 f03d 5896 6a3d 0649 1d3c 6f31 543d
000002e0: 4d01 94bc eb39 d43c 7a72 0cbb 1d37 083d
000002f0: 754b 433c 53c5 07bd f4a5 26bd afd8 893d
00000300: 28c6 783c a3e1 f03c c2ba 6f3c 5ed3 94bd
00000310: a3d1 fdbc 0e78 18bc 226a 513d 990c bbbd
00000320: 318d 273d 5a41 ccbd 7cc7 f1bc 2c09 c83c
00000330: 30fc 853d c5ea c43a 338a 2bbd f057 20bc
00000340: 84f3 9c3b 5932 0ebd eb83 a9bc a950 183b
00000350: 0083 3d3c 6a0d 10bd fc06 3b3c 124f 873c
00000360: 6a1c a7bc 4e9f 86bc 3e32 aabd d1c4 57bd
00000370: 1713 323d 9169 3b3a 2f73 e2bc 3b14 14bc
00000380: 8481 7ab9 ad48 59bd e09a e63c c34a 26ba
00000390: 8c76 87bd 912d 873d 8990 0f3c e260 793d
000003a0: 7849 003c 8540 a6bc aa43 d5bc 7ac5 fbbb
000003b0: c3e4 1cbc 8de4 00bc 76ec f2bc b2d0 bf3c
000003c0: 60ad eebc c788 1f3d 6336 0d3a 993e c03c
000003d0: 0a4a 86bd f3d0 d13a 6d7f f93c b35f 9e3c
000003e0: 149c 85bc b7c4 54bc a373 2f3c b1a9 003e
000003f0: d68a 233d 3357 d4bc b038 6bbd c0ba 51bd
-0.0620419 -0.016631702 -0.020845458 0.11431919 0.021163302 0.0017011885 -0.016008476 -0.0151896225
-0.03290917 0.23015797 0.05445323 -0.033331126 -0.023940604 -0.019490458 0.056323856 -0.016471846
0.042688876 -0.05066896 -0.15391524 0.0041504465 -0.10553913 -0.03598499 -0.05761697 0.019254642
-0.030596677 0.08905096 -0.034904867 0.12334836 -0.01630161 0.1671197 0.009320167 0.009300388
0.077355735 -0.1009751 0.1301738 -0.0005322865 -0.047871213 -0.06360302 -0.017343933 0.09054289
0.011158105 0.04430834 -0.01339911 0.004168543 -0.094745114 0.0642656 0.021057852 0.080614194
-0.012994893 -0.043822777 -0.040803026 -0.1355884 -0.0445941 -0.0139994435 -0.0735082 0.0061107515
0.011892275 -0.018977245 -0.092748165 -0.014427463 -0.008377238 0.0438689 -0.07932776 -0.044784416
-0.0005342404 0.077070914 -0.06272783 -0.08122662 -0.034194708 0.02902012 0.007547697 -0.041757632
-0.029597716 0.1040121 0.09342539 -0.04467765 -0.11111666 0.06629647 -0.035922527 0.11115277
-0.007010835 0.057461895 -0.08674696 -0.007638196 0.034615975 -0.037251003 -0.013212021 -0.045252617
-0.02515157 0.0256548 0.0039436207 0.01394051 0.021408433 -0.02164994 0.06035636 -0.13746351
0.15420972 0.11405864 -0.038998336 -0.01600507 0.033314556 -0.005496074 0.005261386 -0.0267933
-0.04370993 0.050646264 0.091646194 -0.040342644 -0.009311715 -0.02321895 -0.001567025 0.054139555
0.027694289 -0.035973493 0.012153382 0.0059944685 -0.12693864 0.08847555 0.047233798 -0.0694438
0.042444687 0.009738489 -0.01785276 0.009767481 -0.01972799 0.0141464025 0.025584454 0.06733461
-0.02737459 0.01653084 -0.028161136 0.02328648 0.026523212 0.012981663 -0.003456391 0.14079563
-0.033542827 0.0013847381 0.018372195 0.05292164 0.01038573 -0.0054090763 -0.009662791 0.1667649
0.041352544 0.013331816 0.0394821 0.07752179 0.012849152 0.010380301 -0.006174341 -0.041469805
0.014078584 0.010135097 -0.03903306 0.0055168695 0.0025864681 0.03618635 0.013590427 -0.1103611
-0.17043777 0.0027371189 -0.00096390815 0.06537362 0.07644072 -0.028389918 -0.016431142 -0.0027857383
-0.11401933 0.060426004 0.0051235333 -0.012512747 -0.07153919 -0.007361762 -0.06516009 0.012738575
-0.010615509 0.0037310305 0.004559851 -0.09034002 0.11735022 0.057272285 0.00959993 0.051804956
-0.018067027 0.025906524 -0.0021430538 0.033255685 0.011919846 -0.033147167 -0.04068561 0.06730782
0.015183963 0.029404467 0.014631929 -0.072668776 -0.030983752 -0.009305967 0.051126607 -0.09133262
0.040906135 -0.09973402 -0.029514067 0.024418436 0.065422416 0.001502358 -0.041879844 -0.009786591
0.0047897715 -0.034715984 -0.020692786 0.0023241437 0.011566877 -0.035169043 0.011415239 0.016517196
-0.020399291 -0.016433384 -0.08310364 -0.052677933 0.043475237 0.00071492145 -0.027642814 -0.009038026
-0.00023890106 -0.053047825 0.028150022 -0.0006343538 -0.06614408 0.06600488 0.008762487 0.06088341
0.007830016 -0.020294437 -0.026033241 -0.007683453 -0.009576025 -0.007866991 -0.029653769 0.023414943
-0.029135406 0.0389488 0.00053868274 0.023467349 -0.065570906 0.0016007706 0.03045627 0.019332742
-0.016309775 -0.012986354 0.010708722 0.12564732 0.039927326 -0.025920486 -0.05742711 -0.05120349

mlp.6.bias f4 [16]
00000000: 53b1 ac3d 5339 f03d 255e 14be de30 2abe
00000010: ff5d 8bbd bea9 d1bd ccd7 4f3e 3739 50bd
00000020: 21af 46bf 0959 84bf 0cfd 09bf d438 0cbf
00000030: 79aa 47bf f37b 81bf 52ec 10bf 03ae 16bf
0.084322594 0.11729684 -0.14489038 -0.16620204 -0.06805038 -0.10237454 0.20297164 -0.050835814
-0.77610976 -1.0339671 -0.53901744 -0.5477421 -0.77994496 -1.0115951 -0.56610596 -0.5885927
